output/gcn_model.pth (torch, 533340 bytes, 6 tensors)

GNN.conv1.bias f4 [256]
000000 00 00 00 00 4d 0d e9 3c 91 45 0b 3d d5 86 b1 bb
       0.0 0.028448725 0.03400189 -0.0054176846
000010 b9 b6 a1 3b 35 53 5c 3b 47 33 8f bb 08 c8 60 3d
       0.0049351123 0.0033618931 -0.0043701264 0.054878265
000020 00 00 00 00 fd d7 ce 3a 6b 96 fe bb 44 36 d6 3b
       0.0 0.0015780922 -0.007769396 0.0065372307
000030 fa 4c 25 3d ff 63 4a bc 95 ad ac 3c 81 a7 72 3c
       0.040356614 -0.0123529425 0.021078864 0.014810444
000040 88 8c 54 3c d5 b6 6f bc b5 ce 0a 3c fb 0a 26 3c
       0.012972958 -0.014630993 0.008472134 0.010134454
000050 ba d8 8b 3c 9f 20 8f 3c 64 a1 8b 3b 8c 96 06 3d
       0.017071117 0.01747161 0.0042611826 0.032858416
000060 00 00 00 00 cf e4 93 3c 00 00 00 00 00 00 00 00
       0.0 0.01805344 0.0 0.0
000070 31 f9 87 bb ec 49 be 3c 01 bf e8 ba 21 35 b9 3c
       -0.004149579 0.023228608 -0.0017757119 0.022608342
000080 19 62 85 3c d8 18 19 bc 0b cf 81 3c 91 3c e2 3c
       0.016282128 -0.009344302 0.015845796 0.027616771
000090 25 2f 08 3c f5 75 0e bc c0 11 20 3b c7 71 01 3b
       0.008312021 -0.008695115 0.0024424642 0.0019751654
0000a0 cd f6 ed 3c e7 54 5a bc 16 e7 5a 3c 00 00 00 00
       0.029048348 -0.013325906 0.013360759 0.0
0000b0 cd 9b ae 3c 6c 31 93 3c 8d 49 f3 3b 00 00 00 00
       0.021314526 0.017967902 0.0074245394 0.0
0000c0 01 07 fe 3c 00 00 00 00 2d 92 2e 3c 5b b6 00 3d
       0.0310092 0.0 0.010654968 0.031423908
0000d0 73 64 a3 3c 00 00 00 00 00 00 00 00 58 58 39 3b
       0.019945359 0.0 0.0 0.0028281417
0000e0 00 00 00 00 00 00 00 00 04 f8 13 bc c4 39 bd bb
       0.0 0.0 -0.0090312995 -0.0057747085
0000f0 1b 68 b3 3c b8 8d bb 3c c2 dc 18 bc 00 00 00 00
       0.021900227 0.022894725 -0.0093299765 0.0
000100 1b c4 7c 3c 50 7f 60 bc 00 00 00 00 00 00 00 00
       0.015427615 -0.013702229 0.0 0.0
000110 8e e9 91 b9 39 b8 c4 3c 70 50 c2 bb 6d 5d de 3c
       -0.00027830567 0.024013625 -0.005929999 0.027144158
000120 67 9b 99 bb ea d4 4c 3c 06 2a b6 3c 33 6b 91 bb
       -0.004687715 0.012501935 0.022236835 -0.004437828
000130 40 a4 e1 3c 3a e8 61 3c 4a 3c e0 3c 00 00 00 00
       0.02754414 0.013788277 0.027372498 0.0
000140 22 21 b4 3c 00 00 00 00 a4 d9 59 3a ef 85 7e 3c
       0.021988455 0.0 0.0008310324 0.015534862
000150 3a 0e 8c 3c 00 00 00 00 57 15 0c 3d c6 ed be bb
       0.017096628 0.0 0.03420004 -0.0058266846
000160 bf 8c 95 3c b7 94 cc bb 3c 69 e3 3b 00 00 00 00
       0.01825559 -0.006243314 0.006940035 0.0
000170 00 00 00 00 1f 86 1b bc c2 43 e1 3b 00 00 00 00
       0.0 -0.009492426 0.0068745324 0.0
000180 c3 54 af 3b 00 00 00 00 68 03 50 3c 00 00 00 00
       0.0053506806 0.0 0.012696125 0.0
000190 35 c9 3c bc b0 54 b3 3b 00 00 00 00 bc d3 7d bc
       -0.011522581 0.005472742 0.0 -0.015492376
0001a0 d0 94 86 3b 8e 25 07 3b 55 01 16 3c 65 41 62 3c
       0.0041070953 0.002062175 0.009155591 0.013809537
0001b0 83 03 f5 bb fd e7 9e 3c 12 76 01 bb 00 00 00 00
       -0.0074772253 0.01939773 -0.0019754213 0.0
0001c0 00 00 00 00 f5 11 c9 3b 00 00 00 00 00 00 00 00
       0.0 0.006136174 0.0 0.0
0001d0 dd 7e 01 3c 00 00 00 00 d1 ac 9a 3a 09 73 29 3c
       0.007903782 0.0 0.0011800771 0.010342368
0001e0 00 00 00 00 00 00 00 00 3b 46 1c ba 00 00 00 00
       0.0 0.0 -0.0005961393 0.0
0001f0 9b 71 aa 3c 48 64 c1 3b 67 9e 4b 3c 00 00 00 00
       0.020806124 0.005901847 0.012427903 0.0
000200 47 30 d3 bb 00 00 00 00 b1 5b d8 3c 00 00 00 00
       -0.006444964 0.0 0.02641091 0.0
000210 9c fc 3e 3c e2 31 d2 b9 c1 e9 e3 3c 52 b6 c7 3c
       0.011656906 -0.00040091487 0.027821423 0.02437893
000220 7d da be 3c f6 40 2a 3c ec 3d b7 3c a7 e1 b0 3c
       0.023297543 0.010391464 0.022368394 0.021591974
000230 e2 a7 5a bc 00 00 00 00 eb 34 60 3c 73 ad 42 3c
       -0.01334569 0.0 0.013684492 0.011882174
000240 0d ef 19 3b 00 00 00 00 0c ac 14 3c 24 7a 13 3a
       0.0023488433 0.0 0.009074222 0.00056258054
000250 00 00 00 00 00 00 00 00 c3 07 bf bc 38 13 0f 3d
       0.0 0.0 -0.02331913 0.034930438
000260 6a 59 e3 3c f8 34 27 3d 00 00 00 00 88 8a 47 bc
       0.027752597 0.040822 0.0 -0.0121790245
000270 00 00 00 00 a0 e7 bb 3c c4 af e9 3a 75 62 21 3d
       0.0 0.022937596 0.0017828871 0.039400537
000280 ed c1 5b 3c 10 22 a1 bb 00 00 00 00 72 7e 80 3c
       0.013412935 -0.0049173906 0.0 0.015685294
000290 00 00 00 00 00 00 00 00 00 00 00 00 58 2d 51 3c
       0.0 0.0 0.0 0.012767158
0002a0 74 c9 8b 3a 00 00 00 00 77 13 22 3c ff db f5 3c
       0.0010664896 0.0 0.009892336 0.030012129
0002b0 00 00 00 00 a3 84 91 3b 72 c9 ee 3c 44 1b b9 3a
       0.0 0.0044408604 0.029148791 0.0014122506
0002c0 a8 c3 8c bb 67 7d e7 3c 7f c8 9f 3c 97 e0 98 bc
       -0.004295785 0.028258039 0.019504784 -0.01866178
0002d0 f1 a8 05 3c 92 3e 0a 3c 2d 3e 58 3c c5 14 02 bc
       0.008157955 0.0084377695 0.013198418 -0.007939522
0002e0 5f 91 05 bc be dd 81 3b ae e2 8a 3c ac 4e 83 3a
       -0.008152335 0.0039632013 0.016953792 0.0010017953
0002f0 f3 8f 3c 3c 6d 8e a6 3c fa 70 22 3c 00 00 00 00
       0.01150893 0.020331586 0.009914631 0.0
000300 c4 91 de bb b2 a2 72 bc 79 5e 44 bb d0 7e 2b 3c
       -0.006792279 -0.014809297 -0.0029963537 0.010467246
000310 42 49 8c ba 88 4c b1 3b 0c d5 c1 bc d2 99 11 3d
       -0.0010702985 0.0054107346 -0.023661159 0.035547085
000320 05 95 b2 3b c1 f3 c7 3c 12 53 ac 3c 08 d1 3b 3c
       0.0054498934 0.024408223 0.021035705 0.011463411
000330 db 68 8f 3c 97 08 38 3a b8 4b 92 3c 11 d6 13 3d
       0.017506054 0.0007020323 0.017858371 0.03609282
000340 00 00 00 00 00 00 00 00 6e cc d6 3c 25 17 00 bc
       0.0 0.0 0.026220527 -0.007818018
000350 ed 7d 87 bb 35 fb 05 3d 7b 81 af bb 0a 3d 0e 3d
       -0.0041348846 0.032710273 -0.0053560114 0.03472618
000360 f2 b6 d2 3c 00 00 00 00 1b 6c de bb a1 86 2b 3d
       0.025722 0.0 -0.0067877895 0.04187644
000370 a6 79 80 3c 00 00 00 00 b2 f8 cb 3c 00 00 00 00
       0.015683006 0.0 0.02489886 0.0
000380 a7 87 b3 bc 00 00 00 00 8e 98 af 3b 00 00 00 00
       -0.02191527 0.0 0.005358762 0.0
000390 4a 5d d8 3c c1 e8 9b 3c b0 cf 5e 3c 00 00 00 00
       0.026411671 0.019031884 0.013599321 0.0
0003a0 d9 91 5f bc 39 41 b7 3c 8a 23 f3 bb d8 01 a2 3b
       -0.013645613 0.022369968 -0.007420008 0.0049440674
0003b0 90 95 14 3c 00 00 00 00 67 43 55 3a d5 4c cf 3c
       0.009068862 0.0 0.0008135349 0.025305191
0003c0 00 00 00 00 d6 ea 56 3c 11 5a 23 3c 82 01 5f 3c
       0.0 0.013117513 0.009970204 0.013611199
0003d0 00 00 00 00 bc ea 08 bc e7 c1 c1 3c 74 5e c4 3c
       0.0 -0.008356746 0.02365203 0.02397082
0003e0 ae 73 97 3b 27 91 1b 3c 00 00 00 00 00 00 00 00
       0.0046219444 0.009495056 0.0 0.0
0003f0 00 00 00 00 49 81 8e bc 00 00 00 00 ab bc be 3c
       0.0 -0.017395632 0.0 0.023283323

GNN.conv1.lin.weight f4 [256, 3]
000000 aa 0b 97 bd dc 70 6c bd e1 14 f5 bb db 49 26 3e
       -0.073752716 -0.05772482 -0.0074792956 0.16239111
000010 4f b6 e5 bd 5c 34 e8 bd 5a b6 84 3e 5c 56 0c 3c
       -0.11216413 -0.11338112 0.25920373 0.008565512
000020 de a1 1f be 67 18 f7 bc ca 31 57 3e 72 31 25 3e
       -0.15589091 -0.030163003 0.21015087 0.16132143
000030 c3 f5 c5 3d 59 43 57 be 36 e4 6c 3e 63 f0 6d bd
       0.09666016 -0.21021785 0.2313393 -0.05809058
000040 a2 17 5f 3e e9 c2 86 3d 73 36 3f 3e 2f fc 10 be
       0.21786359 0.06580145 0.18673114 -0.141587
000050 b2 04 e9 3d e7 2c 03 bd aa 44 ab 3e 7a 9a 1c be
       0.11377849 -0.032025244 0.33450824 -0.15293303
000060 ab 45 83 bc 0b 3c 3a 3b 55 03 97 bd 69 7a b6 3d
       -0.016024431 0.0028417136 -0.073736824 0.08910067
000070 50 6c 49 be a6 72 87 3e e6 6a 0b be 22 17 7d bd
       -0.19670224 0.26454657 -0.13614997 -0.06178964
000080 c7 1e 8f 3e ca a9 3c be db 53 93 3b 02 0c 41 3e
       0.2795317 -0.18424144 0.0044960803 0.18852237
000090 74 12 6e bd a0 19 8c 3e 4b fd 5b be c7 01 20 bd
       -0.058123067 0.273633 -0.21483342 -0.039064195
0000a0 73 75 a0 bd fe 04 5f 3d e4 65 f4 3d 82 21 ec 3d
       -0.07834902 0.05444812 0.119334966 0.115298286
0000b0 dc 0b 91 3d 43 29 01 bc 3f e3 5c 3e 64 56 41 be
       0.0708234 -0.007883373 0.21571063 -0.18880612
0000c0 9f a1 c3 bc 8a 3b 2e be 9d fb 4a 3e 7a c9 1e be
       -0.023880778 -0.170149 0.19822545 -0.15506545
0000d0 06 1c 82 3c 04 ee 66 3e 71 d7 89 3e 1e 45 21 be
       0.015882503 0.22551733 0.2692218 -0.15749022
0000e0 25 53 c8 3c bd 0c 3b 3e 4e ea de 3c 07 f9 48 be
       0.024453709 0.18266578 0.027211335 -0.19626246
0000f0 d2 71 0c bd 05 24 49 be dc 67 9c 3e 38 0d d3 3d
       -0.034288235 -0.19642647 0.30547988 0.10305256
000100 e4 4f 87 be 0a ad a3 3e 50 a4 84 3d 25 2e 4b 3e
       -0.2642814 0.31967956 0.064766526 0.19841821
000110 93 f2 b0 3c 5b ae 89 bc b2 ef 15 3e c5 f0 2c be
       0.021600043 -0.016806772 0.14642218 -0.16888721
000120 5e d8 9b bd 3b e4 2d 3d ee 1e 4a bd 2f 43 95 3d
       -0.07609628 0.042453986 -0.049345903 0.07288205
000130 be dd 82 3e f2 d7 f1 bc 65 0e 31 3c a6 59 c8 bd
       0.255598 -0.029521916 0.010806655 -0.09782724
000140 ec 33 04 bd 73 5e 02 be 2a b1 d7 bd 2f 70 00 be
       -0.03227608 -0.12731342 -0.10531838 -0.12542795
000150 3d e3 a2 3c 9f d3 4b 3e 14 a7 5b bc ac b6 25 bd
       0.019883746 0.19904946 -0.013406534 -0.040457413
000160 e2 72 30 be c6 1c 19 3e eb 2c 42 3e 8a 3d 93 bd
       -0.17231324 0.14952382 0.18962447 -0.07189472
000170 5b 06 42 3e 98 90 34 be 97 c0 80 3e b9 69 b8 3b
       0.18947737 -0.17633283 0.25146934 0.0056278375
000180 f8 1b 0d 3e 4a fc 79 3e 9b 32 91 be eb 38 bb 3c
       0.137802 0.24412647 -0.2835892 0.022854289
000190 1d e7 c0 bc c3 11 42 bd d9 62 5e bd 43 26 48 3e
       -0.023547703 -0.04738022 -0.054293487 0.19545846
0001a0 0b f2 b6 bd be 8d 75 3e ef fc 83 bd 6b b6 96 bd
       -0.08932885 0.23979852 -0.06444728 -0.07359012
0001b0 40 f7 b7 bd a0 82 0d 3e 83 d2 7f bd 1a b5 79 3d
       -0.08982706 0.1381936 -0.06245662 0.060963728
0001c0 87 6e a8 bc 1c 17 5e 3e 91 8a 89 3e a6 63 9c bd
       -0.020560516 0.21688503 0.2686353 -0.07636194
0001d0 02 e8 20 be da a2 59 bd 81 56 2d 3e b3 e0 7e 3e
       -0.15713504 -0.053133823 0.1692753 0.24890403
0001e0 69 a3 0f be 03 b9 07 be fd 95 5b 3e d2 bf 15 3e
       -0.1402718 -0.1325417 0.21443935 0.14623955
0001f0 d4 92 d5 3c 94 50 14 3e 12 51 29 3e 4f 22 db 3d
       0.02607099 0.14483863 0.16534832 0.10699903
000200 e1 6d 82 be e0 c2 cd 3c da 80 e9 bd 8c 1a 82 bc
       -0.25474456 0.025117338 -0.114015296 -0.0158818
000210 8d eb 8e bc 73 6c 23 3e 0d 8d 20 be e4 77 60 be
       -0.017446304 0.15959339 -0.15678807 -0.21920735
000220 f4 ca 56 3d 13 c9 31 3e 54 c3 8e 3e a8 73 90 be
       0.052439645 0.1736186 0.278834 -0.2821324
000230 63 d5 9d 3d 5f d7 61 bd 71 4d 98 bd 9d 21 42 3a
       0.07706716 -0.055137035 -0.07436646 0.00074055215
000240 89 a7 60 bd 3e c9 70 3e eb 9f 34 be 7c 9b 91 bd
       -0.054847274 0.23514268 -0.17639129 -0.071097344
000250 7b c2 12 be 29 e8 8c bd c5 ba 56 3e 5a 60 8a be
       -0.14332001 -0.068802185 0.20969684 -0.27026635
000260 53 c9 3a 3e 4b 5e 4b 3e f1 8f 1a 3e 21 b4 85 bc
       0.18240862 0.19860189 0.15093972 -0.016321244
000270 78 14 07 3e 93 c1 fe bd a6 ab 4b bd 6b 8c 39 bd
       0.13191402 -0.12439265 -0.049724244 -0.04529993
000280 51 dd 31 bb 9d 7f f8 bd 35 78 0c be cf 16 27 bd
       -0.0027139971 -0.12133715 -0.1371773 -0.040793236
000290 91 c2 f3 3c a5 2e 27 3e 27 69 c0 3d 30 dc 5a 3e
       0.029755862 0.16326387 0.09395056 0.21373057
0002a0 42 62 b1 bd 48 e3 04 bd 8f bf f7 bd 6d 36 9e bd
       -0.08661319 -0.032443315 -0.12097084 -0.07725225
0002b0 2e 17 3e 3d 95 75 f2 bc e3 ad 44 bd 76 8d 40 3e
       0.046408825 -0.029597083 -0.048017394 0.18803963
0002c0 03 ec 00 bd f5 51 f0 3d 32 64 0b be ba 94 5f 3e
       -0.03147508 0.11734382 -0.1361244 0.21834078
0002d0 d0 a2 ee 3c f6 b9 40 3e f0 37 42 be c6 bd d9 3d
       0.02913037 0.18820938 -0.18966651 0.106318995
0002e0 9b ee 79 be 46 e4 49 3e 35 7b 06 3e 4f e0 0c 3e
       -0.24407427 0.19715986 0.13132937 0.13757442
0002f0 e7 7f 0c 3e 96 81 d9 bc a0 06 eb bd 7e 79 83 bc
       0.13720666 -0.02655105 -0.11475873 -0.016049143
000300 e5 02 44 be e5 0c 49 bc ca b3 6a 3e cf 5e 6f be
       -0.19141729 -0.012271141 0.22920147 -0.2337601
000310 f3 b7 08 3e fa ef 7e 3e 37 94 10 be 5f 8f 4a 3d
       0.13351421 0.24896231 -0.1411904 0.049453136
000320 95 87 0a bc 4c a7 12 bc 19 b5 b4 bd 12 4a a8 3c
       -0.008455177 -0.0089510195 -0.08823604 0.020543132
000330 b8 fe c4 bd f4 e9 6f 3e 68 b7 47 3e 21 6d d8 bb
       -0.09618896 0.2342909 0.19503558 -0.006604806
000340 f5 1e 4f 3e 9d 4d 35 be 3d 35 2e bd 6c 2a 5c bd
       0.20226653 -0.17705388 -0.04253124 -0.053751394
000350 53 97 e9 3c 3b 5b 6a 3d 45 dc 5e 3e 9b 7a 2e be
       0.02851454 0.05721591 0.21763714 -0.17038958
000360 0f e9 22 3e 4b 96 d8 bd 69 a8 34 3e f6 5d 37 3e
       0.15909217 -0.10575541 0.17642368 0.17906937
000370 9f 32 1b be 66 50 d9 3c a3 78 81 be f4 b6 e5 3d
       -0.15156029 0.026527595 -0.2528735 0.11216536
000380 4a 4c 29 3e b5 a9 05 3d d1 ef 7e bd 8e f3 60 bd
       0.16533008 0.03263255 -0.062240425 -0.05491977
000390 77 94 a4 3d ea 52 0d 3d 80 b7 0c be d5 eb 43 3a
       0.0803613 0.0345029 -0.13741875 0.00074738014
0003a0 7d 20 96 3d bd a0 7b 3e 79 26 48 bd 74 56 1c 3e
       0.073304154 0.24573036 -0.048864815 0.15267354
0003b0 0f c7 f8 bd 55 a8 9a bd b6 0d f3 bb 1b 5e 0a bb
       -0.121473424 -0.07551638 -0.007417406 -0.002111322
0003c0 6b 00 25 be 13 0d 1e 3e a0 5d 18 bd 11 77 01 be
       -0.1611344 0.15434675 -0.037198663 -0.12643076
0003d0 37 9a 55 3d b8 69 88 bd 77 c0 63 be ba b4 7d 3e
       0.052149024 -0.06660789 -0.22241388 0.24775973
0003e0 cb d4 e5 3b e7 89 2c be 5d 31 ad 3d ab 10 22 3e
       0.0070138923 -0.1684948 0.08456681 0.15826671
0003f0 bf 81 1d be 2d 10 ae bd 34 d2 66 3e 82 f7 72 bd
       -0.15381525 -0.08499179 0.22541124 -0.059318073

GNN.conv2.bias f4 [256]
000000 eb d8 79 bc 81 46 e0 39 93 58 b4 3c 5d f0 01 3d
       -0.015249471 0.0004277714 0.022014892 0.03172337
000010 3c 6e fd 3d 00 00 00 00 00 00 00 00 4f 5f a1 bc
       0.12374541 0.0 0.0 -0.019698767
000020 10 46 d3 bc 3e a4 05 bd b5 23 71 3d 91 3d c4 bb
       -0.025790244 -0.032627337 0.058871944 -0.0059887846
000030 98 d3 49 bd 4d aa 7f 3d 73 36 25 bd 40 8f 0e 3b
       -0.049274057 0.06241827 -0.04033513 0.0021752864
000040 91 ac c4 bb 39 52 19 bd 00 00 00 00 33 3b ab bc
       -0.006002017 -0.03743193 0.0 -0.020902252
000050 33 69 6d bc dd ea b6 3d f2 16 31 bc 72 33 28 3b
       -0.0144904135 0.08931515 -0.010808693 0.002566543
000060 a4 ec 48 3c b6 62 ca 3c ed c6 92 3d d1 0b 2e bd
       0.012263451 0.024705272 0.07166848 -0.042491738
000070 27 d7 bd bc 60 6f ff bb 00 00 00 00 27 6a ea 3b
       -0.023173882 -0.0077952594 0.0 0.0071537676
000080 3f 8b 55 bd 80 0c c5 bb 3a 7e 6b 3d 98 55 29 bd
       -0.05213475 -0.006013453 0.057493426 -0.041341394
000090 f0 53 ef bb 53 7b a2 ba 2d 7b 30 3c eb d4 16 3d
       -0.0073037073 -0.0012396373 0.010771555 0.03682415
0000a0 23 5b 40 bb ba 72 19 bb 00 00 00 00 29 cd 8b 3c
       -0.0029351197 -0.002341433 0.0 0.017065601
0000b0 00 00 00 00 00 00 00 00 00 00 00 00 37 07 aa 3d
       0.0 0.0 0.0 0.08302157
0000c0 65 71 e6 bb b7 17 9f 3c 00 00 00 00 9a 42 2b 3b
       -0.0070325607 0.019420488 0.0 0.0026132227
0000d0 bb b7 11 bc 06 20 10 3d d1 f6 78 bd 2b fd bd bc
       -0.008893902 0.03518679 -0.060782257 -0.023192009
0000e0 d1 c6 b5 3d 28 4f aa bb 36 3e ac 3c 15 16 6b 3d
       0.08875812 -0.0051974244 0.021025758 0.057394106
0000f0 23 29 3c bd 06 a4 39 3d 00 00 00 00 f5 36 be 3c
       -0.04593767 0.04532244 0.0 0.023219565
000100 9c e4 0f 3d 4f db 91 3d f1 a8 bf bb f9 99 2f 3d
       0.03513013 0.07121908 -0.005848997 0.04287145
000110 1e 9a 40 3d 00 00 00 00 33 87 cf 3c d8 b8 13 bd
       0.047021978 0.0 0.025333023 -0.036064953
000120 2f a8 64 3c 48 07 21 3d e8 28 0b bd 00 00 00 00
       0.013956114 0.039313585 -0.033974558 0.0
000130 c2 c6 c3 3d 53 21 a4 3d 66 1b 86 3d 28 d2 1c 3d
       0.095593944 0.080141686 0.065481946 0.038286358
000140 91 82 16 bd 98 c7 9c 3c 12 4f 12 3d fd ae 86 bc
       -0.03674561 0.019138142 0.03571994 -0.016440863
000150 ec e7 b8 bc c3 4d 0e 3d 36 3d 20 bd 00 00 00 00
       -0.022571526 0.034742128 -0.039120875 0.0
000160 7f 81 5d 3d 42 bf 92 bc 58 a2 be 3b ed 13 f5 3c
       0.054078575 -0.017913464 0.0058176927 0.029916728
000170 0a 13 df 3d bd a2 30 bb 00 00 00 00 70 c9 be 3d
       0.10892303 -0.0026952468 0.0 0.09315765
000180 93 36 bc bb 41 d8 32 bc 00 00 00 00 e8 8a 98 3c
       -0.0057438104 -0.010915817 0.0 0.018620923
000190 0f b9 56 bc 00 00 00 00 7b fd 62 3d b8 01 48 3d
       -0.013105645 0.0 0.05541752 0.048829764
0001a0 23 67 96 3b 98 d6 9b 3c 00 00 00 00 00 00 00 00
       0.0045899316 0.019023225 0.0 0.0
0001b0 54 f6 1a 3d 50 ec 9b b9 ed 77 82 bc 3d 14 09 bc
       0.037832573 -0.0002973997 -0.015926326 -0.008366642
0001c0 5a 7a 36 bc 46 ab 17 3d 23 83 42 3d 00 00 00 00
       -0.011137569 0.037028573 0.047488343 0.0
0001d0 0e 0b 3f bc 2f fd 47 3d 6c 8b cd 3c 00 00 00 00
       -0.0116603505 0.04882544 0.025090896 0.0
0001e0 df 05 f0 3d 74 bf 84 bb f9 93 fe 3c d0 a5 a6 3c
       0.1171987 -0.0040511433 0.031076418 0.020342737
0001f0 43 20 01 3d 00 00 00 00 ad 02 8c 3c 00 00 00 00
       0.031524908 0.0 0.01709112 0.0
000200 ac fc 08 3d f7 fb 84 3d 7c 93 0e bd 00 00 00 00
       0.03344409 0.06493371 -0.03480862 0.0
000210 61 02 1a 3d 67 a8 fb bc 16 b4 43 bd 00 00 00 00
       0.037599925 -0.030719949 -0.047779165 0.0
000220 00 00 00 00 00 00 00 00 50 6e 84 bc 19 7a 6b 3c
       0.0 0.0 -0.016165882 0.014372372
000230 aa ec 16 bc 02 b2 73 3d bf 10 b0 bc 10 6d c4 bb
       -0.009211699 0.059495933 -0.02149236 -0.0059944466
000240 40 e5 33 37 85 b4 10 3c 65 2d 0e bd c6 64 2a bc
       1.0722608e-05 0.008832102 -0.03471126 -0.010400003
000250 18 62 69 3d 0d 27 f9 bb 63 54 a4 3b b8 c0 f8 bc
       0.056978315 -0.007603532 0.0050149425 -0.030365333
000260 3a 60 03 bc ed 3f 81 3d 0d 94 a9 bc 75 58 0e bd
       -0.008018548 0.06311021 -0.020700479 -0.034752328
000270 d0 e9 b7 bb a3 ed 02 bd 7e 1a 21 3d dd cb c7 3b
       -0.0056125894 -0.03196491 0.039331906 0.0060973004
000280 80 19 d6 3c 00 00 00 00 4f 5a 65 bd 41 85 36 bc
       0.026135206 0.0 -0.055994328 -0.011140169
000290 b6 f6 ef bb 00 00 00 00 00 00 00 00 00 00 00 00
       -0.0073231114 0.0 0.0 0.0
0002a0 fc 32 26 3e e2 e5 11 bd 6f 3b 04 3d 5a 2c 79 3c
       0.16230386 -0.035619624 0.032283243 0.015208328
0002b0 e0 29 d1 bb 69 04 4e 3d 74 0a 72 3d bd 45 d0 3d
       -0.0063831657 0.050297175 0.059092 0.101695515
0002c0 3a 75 66 3d 2c 4c 34 3d 00 00 00 00 00 00 00 00
       0.05626414 0.044017956 0.0 0.0
0002d0 ba e8 62 3d 40 44 30 3d 20 a6 c4 bb 3c d8 13 bd
       0.055397727 0.04303384 -0.006001249 -0.03609489
0002e0 ec e5 8b bd 67 c1 97 bb 48 6d b3 3c bc 9e 26 bd
       -0.068309635 -0.0046312097 0.021902695 -0.040678725
0002f0 00 00 00 00 00 00 00 00 40 18 87 3c 00 00 00 00
       0.0 0.0 0.016491055 0.0
000300 00 00 00 00 3f 3f 06 bd 8a bd b3 3d b5 93 c3 3c
       0.0 -0.03277516 0.08776386 0.023874143
000310 e8 bd ee ba 5c 34 01 3d 17 9c b9 3d 00 00 00 00
       -0.0018214555 0.031544074 0.09062975 0.0
000320 d4 be f3 bc 8c 38 70 3d f4 cd dc bb 00 00 00 00
       -0.02975408 0.058647677 -0.0067384187 0.0
000330 35 c7 c4 bb 50 4e d6 bb 37 ad 9a 3c 00 00 00 00
       -0.0060051926 -0.0065400973 0.018881423 0.0
000340 00 00 00 00 00 00 00 00 00 00 00 00 66 8c c1 bb
       0.0 0.0 0.0 -0.0059066294
000350 ec 0f 85 bc de b7 ce bc 77 30 8d 3a 35 62 88 bd
       -0.016242944 -0.02523416 0.001077189 -0.066593565
000360 34 16 c5 bc de 41 70 bc 6d 7e cf bb 80 75 bf bd
       -0.024058439 -0.014664141 -0.00633221 -0.09348583
000370 64 02 fe bc 1a 14 20 3d ea e6 c1 3c 71 d5 29 bd
       -0.031007 0.03908167 0.023669679 -0.04146332
000380 35 9a 18 3d bd 62 85 3d 00 00 00 00 00 00 00 00
       0.03725644 0.065129735 0.0 0.0
000390 77 01 f2 3c 04 11 fa bb 2d d7 58 ba 79 b8 8b 3c
       0.029541714 -0.007631423 -0.000827181 0.017055737
0003a0 70 e3 81 3c 29 ae c3 bb b3 34 05 bd 35 c7 ed bb
       0.015855521 -0.0059716892 -0.03252096 -0.0072564133
0003b0 81 7a 96 3c 00 00 00 00 7a 02 b2 3c 51 c8 7f 3d
       0.018368961 0.0 0.021729697 0.062446896
0003c0 a7 71 93 3d b2 4a 13 3d d6 6a f5 3c 80 2c 35 bc
       0.07199412 0.035959907 0.02995817 -0.011057973
0003d0 a9 90 a5 bc cf ba 2b 3a bc d9 dd 3c 0d b1 09 3d
       -0.02021058 0.0006550969 0.027081363 0.033616114
0003e0 00 00 00 00 67 3e 4c 3b ee fe 0e bd 03 6a 71 3c
       0.0 0.0031165124 -0.03491109 0.014734748
0003f0 00 00 00 00 00 00 00 00 8b b2 a4 bb 7f 17 7d bd
       0.0 0.0 -0.005026167 -0.061789986

GNN.conv2.lin.weight f4 [256, 256]
000000 15 22 1d bd 4d a0 a5 3d 6c 02 13 3e 17 db a3 3d
       -0.03836258 0.080872156 0.14356393 0.080007724
000010 80 d0 cb bd c9 5f bd bd c0 6e b2 bd 74 6e 0a 3d
       -0.099518776 -0.09246785 -0.0871253 0.033796743
000020 7d 23 95 bd 82 15 41 be a9 0b fd bd 25 e9 dd bd
       -0.072821595 -0.18855861 -0.123557396 -0.108354844
000030 52 80 53 3d 72 cb 11 3d 28 24 56 bd ba 55 df 3d
       0.051636048 0.03559441 -0.052280575 0.10905023
000040 c8 c9 9b bd da 65 4b be 46 62 6d 3d f6 3c e8 3d
       -0.07606846 -0.19863072 0.05795505 0.113397524
000050 e1 a4 5b be 22 be 58 bc 1d 51 2a bd d4 e6 e2 3d
       -0.21449615 -0.013228925 -0.041581262 0.11079183
000060 ae 29 b2 bd 2c 7a c9 3d 13 9d 73 bd c8 25 8f 3d
       -0.08699356 0.098377556 -0.05947597 0.06989628
000070 3d 2b 0e 3c 19 ae 0b 3e e4 f0 a7 bc f9 cf e3 3d
       0.008677301 0.13640632 -0.020500608 0.11123652
000080 fd 2b 01 3e b8 36 ca bd 22 fa 44 3d f6 37 0f 3e
       0.12614436 -0.09873718 0.048090108 0.13986191
000090 20 1e 03 3e 36 ca 60 bd 07 eb 7a 3e d5 f2 0f bd
       0.1280446 -0.054880343 0.24503718 -0.035143692
0000a0 eb c5 11 be ad 5c 94 bc 88 64 19 3e 3a b3 64 3d
       -0.14235656 -0.018110598 0.14979756 0.055834986
0000b0 cb 4d 0e 3e 1c 3c 32 be 0a 0e 43 bd 8e 81 c3 3b
       0.13896863 -0.17405742 -0.04762081 0.005966372
0000c0 d9 09 0d 3e 59 b6 d1 3d 4b 8a 20 be 33 6b fc 3d
       0.13773288 0.10239858 -0.15677755 0.12325134
0000d0 d2 34 25 3d 78 e7 86 3b 84 7a bd 3c 81 fe 82 3d
       0.040333577 0.0041169487 0.023129709 0.06396199
0000e0 10 2c 82 bd 4c 7f 9f bd a3 94 e1 bc de 2f 2f be
       -0.063560605 -0.07787952 -0.027536696 -0.17108104
0000f0 b8 13 47 3e 87 37 13 be ba 7e df bc f4 cf dc 3d
       0.19441116 -0.14376651 -0.027282108 0.107818514
000100 d4 9d e0 bd f1 8d ce bd 8a 2a 13 bd 67 20 41 bd
       -0.10967603 -0.10085667 -0.03592924 -0.047150042
000110 eb 1e 5f bd 82 45 2e 3e 27 ab 71 bd 73 af 21 3c
       -0.054472845 0.17018703 -0.059001114 0.0098684905
000120 9a 08 8d 3d 80 b6 e0 3d c9 cb f4 bd a1 ee 22 bc
       0.06886406 0.10972309 -0.119529314 -0.009944589
000130 3b 27 1c 3e 4c ec 99 bd c3 06 c0 3d 34 b7 cf bd
       0.1524934 -0.07515773 0.0937629 -0.10142365
000140 50 a1 a7 bc 72 1c da bb 7b 05 bf 3c a8 db 6a bd
       -0.020462662 -0.006656223 0.023318043 -0.057338387
000150 4c f3 31 be c7 6f c2 bd 32 d0 de 3d fe a0 09 bc
       -0.17377967 -0.09493976 0.10879554 -0.0084002
000160 09 b1 69 be db 7c ee bd 1a a1 7b be 60 e2 6f bd
       -0.2282144 -0.11644908 -0.24573174 -0.058565497
000170 b9 0f cb bd f5 af bf 3d 78 29 b1 bd 4b ac 34 3d
       -0.09915108 0.09359733 -0.08650488 0.044109624
000180 4d be e7 bd a5 2b 0a bd 47 5c 85 be 86 21 4e 3b
       -0.11315594 -0.03373303 -0.26046965 0.0031453087
000190 2e 5e 48 3e 7a ba 98 bd 1d e7 10 3d 6a 11 02 3d
       0.19567177 -0.074574426 0.035376657 0.03175489
0001a0 15 5f 7d 3d 36 50 de 3d e5 e2 61 be 65 5f d4 3d
       0.061858255 0.10855143 -0.2205921 0.103697576
0001b0 cc 08 29 bd 12 12 d6 bd 3f 50 6c 3e 0d 80 3b bd
       -0.041268155 -0.104526654 0.23077486 -0.045776416
0001c0 b3 a6 a4 bc c4 a2 80 3e a8 68 9c 3d c4 a2 bc 3c
       -0.02009902 0.2512418 0.07637149 0.023026831
0001d0 4e d1 11 3d f0 10 20 bd 05 0a 81 bd 52 26 c1 3d
       0.0356 -0.039078653 -0.06300739 0.09431137
0001e0 ea d3 5b bd 02 c1 5d 3d 27 3e c6 3d ca 1a 47 b9
       -0.053668894 0.054139145 0.09679823 -0.00018988099
0001f0 34 36 01 be 7f ae a4 3d 81 74 47 be 5c 34 ff 3c
       -0.12618333 0.08041095 -0.19478036 0.031152897
000200 bb 4c a3 bc 17 d0 dc bd 1b 78 40 be e7 d3 8f bd
       -0.019934049 -0.107818775 -0.18795817 -0.07022839
000210 47 9b 58 be f1 ee 98 3d 54 70 77 3e d9 1a 9b bd
       -0.21152984 0.074674495 0.24163944 -0.0757348
000220 d8 ed b4 3c 14 a2 c5 bd cb 02 3d be 06 9f 62 3d
       0.022086069 -0.096500546 -0.18458097 0.055327438
000230 37 10 f4 bc d5 64 49 3d 61 00 40 be 8e 80 90 be
       -0.029792888 0.049168427 -0.18750145 -0.2822308
000240 f3 b0 22 3e 89 58 6e bd a7 3b 89 bd 22 34 45 3d
       0.15887813 -0.058189902 -0.06700831 0.04814542
000250 78 f2 3c 3d f4 3e c3 bd 2b d7 cd 3d f0 1d f6 3d
       0.046129674 -0.09533492 0.10050806 0.12017429
000260 be 3e 97 3c fa b2 f9 3d 49 3d 7b bd 5b 25 bf 3d
       0.018462535 0.1219234 -0.061337743 0.09333297
000270 e4 fd 5e 3d 35 04 f0 3d 06 57 6e 3d a9 97 e9 bd
       0.054441348 0.117195524 0.05818846 -0.1140588
000280 64 b3 e8 3d b1 ec ee 3d 7c 3d 7d 3d 75 e3 40 3d
       0.11362341 0.11666239 0.061826214 0.04709192
000290 06 fb 32 3c d6 1d 76 3c c8 93 62 ba b7 ea 1c bd
       0.010924106 0.015021762 -0.0008643237 -0.03830978
0002a0 93 44 90 bd e3 79 b9 bd ff ac 83 3d e4 57 2c be
       -0.070443295 -0.09056451 0.06429481 -0.16830403
0002b0 e1 2c bc bb 6f 37 37 be 3d 3a 36 be 39 8c 2d be
       -0.0057426547 -0.1789224 -0.17795654 -0.16948022
0002c0 d3 4c a3 3c 33 83 98 3d 63 41 04 be cc 8f 0a be
       0.019934094 0.07446899 -0.12915568 -0.13531417
0002d0 fe d9 11 be c9 28 e8 bd e3 f7 92 bc 33 07 8d 3d
       -0.14243314 -0.11335904 -0.017940467 0.06886139
0002e0 d5 36 77 3e 40 84 85 3d c7 b4 f7 bc 7d 8f 75 3b
       0.2414201 0.06519365 -0.030237569 0.003746956
0002f0 42 4b d8 bd 6f 27 a8 bc 95 61 9a 3c 82 73 93 bd
       -0.10561229 -0.020526616 0.018845359 -0.07199766
000300 eb c2 48 3e 94 d2 7c 3e 40 7d 67 3e 70 d0 75 bd
       0.19605605 0.24689704 0.22606373 -0.060013235
000310 e0 ad 0f 3e 9f 94 f0 bc 35 0d df bd 5d 70 5b 3e
       0.14031172 -0.029367743 -0.10891191 0.21429582
000320 85 39 d3 3d 57 e8 21 bd 14 c7 05 bc 2b b9 c2 3d
       0.10313705 -0.039528217 -0.00816514 0.09507974
000330 20 61 59 be c9 90 53 3c 7a 31 41 be ad 1d a8 3d
       -0.21228456 0.012912937 -0.1886653 0.08208785
000340 49 4d a7 bd 8f 71 38 bd 42 6d 8b 3d a8 fa 50 3d
       -0.08169038 -0.045030173 0.06807949 0.051020294
000350 c9 c3 a8 3d fb f5 46 3d 8b 18 55 be 3d 53 a0 bd
       0.08240468 0.04857443 -0.20810144 -0.078283764
000360 23 c1 ee 3b 1b b0 65 bd 0a ff be 3c b8 2b 9c 3d
       0.0072862073 -0.05607615 0.023314971 0.07625526
000370 b8 26 74 bd 88 42 56 bc 19 92 21 3e 64 3b b3 bd
       -0.059607238 -0.013077386 0.15778388 -0.08751562
000380 3d fe af 3b e4 34 c4 3d e8 bd a9 3c 68 66 61 bb
       0.0053708837 0.095804006 0.020720437 -0.0034393314
000390 a7 12 d5 3e 72 9f 54 bd cb 5a 66 bd 3d c2 d8 3d
       0.41615793 -0.05190987 -0.05623893 0.10583923
0003a0 38 0d eb 3d f2 f3 9e bb c5 b2 36 be e4 1a fc 3d
       0.11477131 -0.004850858 -0.17841633 0.123098165
0003b0 e1 c8 bb 3c 61 39 65 3d 23 77 2c 3d 31 af 3d bd
       0.022922935 0.055962924 0.042105805 -0.046309654
0003c0 c4 0f ab bb 6e 7a 9a 3d be a4 60 be a2 99 b2 3c
       -0.0052203853 0.07542883 -0.21937844 0.021801773
0003d0 94 00 61 3d b5 6f f4 3d e7 22 49 bd 81 fe ee 3d
       0.054932192 0.11935369 -0.04910555 0.116696365
0003e0 e9 51 e3 bb 36 81 19 3e 2f 78 d5 3d 6d c6 13 3d
       -0.0069372547 0.14990696 0.10423314 0.036077905
0003f0 67 02 72 3d 23 66 bf 3d 83 7d 0d 3b 84 23 5f bc
       0.059084322 0.09345653 0.0021589703 -0.013619307

GNN.conv3.bias f4 [256]
000000 62 89 29 be 80 2d 8c be dd e6 0c be 53 09 96 bc
       -0.16556314 -0.27378464 -0.13759942 -0.018314993
000010 cf 6a 66 3d 5c 1d cd bb 1f b3 84 3c 96 a1 24 be
       0.056254204 -0.0062596034 0.016198693 -0.16077265
000020 97 9e f6 bb 28 c1 01 be ec 42 80 3b ef eb 04 bd
       -0.0075262296 -0.1267134 0.0039142277 -0.032451566
000030 52 6f 52 be 40 7b bf bc 2c a7 91 bd 64 f9 d4 bd
       -0.20550278 -0.0233742 -0.07111964 -0.1039913
000040 c7 52 ed ba 34 d6 bf bd 3f 4a 40 3b 45 9c 15 be
       -0.0018106335 -0.09367028 0.002934113 -0.14610393
000050 0f 6d 16 be 22 ce 08 be 8c 66 c5 3b 8e 17 8f bc
       -0.1469004 -0.13359883 0.0060241874 -0.017467286
000060 0d dc d8 bd e6 dd 89 3c db 04 f5 3c 4b c5 49 bd
       -0.10588846 0.016829442 0.029909542 -0.04926042
000070 ee 38 a6 bd b0 b9 ad bd 5b ba 22 be 22 65 98 bd
       -0.08116327 -0.08482683 -0.15891401 -0.074411646
000080 00 00 00 00 b3 8a ca bd 99 4d e7 bd e7 f2 46 be
       0.0 -0.09889736 -0.112940975 -0.19428597
000090 a3 6f c1 bd 0f 44 bc ba ce 52 eb bd 57 3a 2b be
       -0.09445121 -0.0014363545 -0.11490403 -0.16721474
0000a0 aa 1b 1a 3a 5c 46 a0 bd 66 fd 8f 3c 7e 9f 02 be
       0.0005878756 -0.0782592 0.017576884 -0.12756154
0000b0 c8 3b b0 ba f1 6f e8 bd fd c8 08 be 69 05 af bd
       -0.001344555 -0.11349476 -0.13357921 -0.08545954
0000c0 18 5c c7 bd e6 ff 83 bd af 96 93 bd 67 8f c4 bc
       -0.09734362 -0.06445293 -0.07206475 -0.02399416
0000d0 ef 4a 97 bd 5e e6 08 be 22 43 bf bd d1 35 f4 bd
       -0.07387339 -0.13369128 -0.093389764 -0.11924327
0000e0 8f c6 dd bc 77 f2 bd bc 51 36 b4 bd d3 eb d8 bb
       -0.02707222 -0.023186905 -0.087994225 -0.0066199093
0000f0 8c 45 ee bb 4a fe 95 bc 24 12 bd 3a fd 26 ea bd
       -0.007271474 -0.018309731 0.0014424962 -0.11433218
000100 af 03 8f bd 00 00 00 00 11 2c c8 bd e5 bf c5 bd
       -0.069831245 0.0 -0.0977403 -0.096557416
000110 f4 f6 a7 bc ad 2f 30 bd d1 d0 75 be e0 4f af bd
       -0.020503499 -0.043014217 -0.24005438 -0.08560157
000120 2a 92 a2 bd 69 45 03 be 9d e4 41 bd ca 50 82 bd
       -0.07938035 -0.12819447 -0.047337163 -0.063630655
000130 98 5a 30 bd 93 df b2 bb 6b 3d 03 be c9 b1 91 bd
       -0.043055147 -0.005458781 -0.12816398 -0.07113988
000140 6b 15 b3 bd 70 c5 80 bd 35 3f fe bd c9 3d 63 bc
       -0.087443195 -0.06287658 -0.124143995 -0.013869711
000150 9c 80 a4 bc ac d8 b2 bc b8 fc 34 be 52 2d ce bb
       -0.020080857 -0.021831833 -0.1767453 -0.0062920237
000160 6b 24 5b bd 01 68 37 bc f4 19 8c bc 51 93 bc bd
       -0.053501528 -0.01119423 -0.01710222 -0.09207786
000170 59 a9 c2 bd 09 59 32 3a 7b 61 98 bd 52 de d5 bb
       -0.09504957 0.00068034284 -0.07440468 -0.006526747
000180 e1 e0 0c be 7b 4c b3 bd af 06 7c be 00 00 00 00
       -0.1375766 -0.08754822 -0.24611925 0.0
000190 97 15 8a bc 00 00 00 00 24 b8 83 bb 4b b1 f5 bd
       -0.016855998 0.0 -0.004019754 -0.119967066
0001a0 28 8a 7d bd 5a e7 0a be 37 da db bd 51 83 86 3b
       -0.061899334 -0.13564816 -0.107349806 0.0041050096
0001b0 1a f1 30 be 33 68 fa 3a 1f 27 42 bd c1 f1 b5 bd
       -0.17279473 0.001910454 -0.04740059 -0.088840015
0001c0 fe 7a 56 3b 00 00 00 00 2b 0e ad bd da 70 36 bd
       0.0032727118 0.0 -0.08449968 -0.044541217
0001d0 c7 09 b0 bd 3f e9 4a bd 66 59 b3 bd a9 a3 25 be
       -0.08595615 -0.049538847 -0.08757286 -0.16175713
0001e0 d4 44 14 be 25 7b 21 be 00 00 00 00 dc 03 58 bc
       -0.14479381 -0.15769632 0.0 -0.013184514
0001f0 94 4e 57 bb be 45 69 3c d2 0b fd bc 2a cc b8 bb
       -0.0032853233 0.014237819 -0.030889425 -0.0056395726
000200 59 3c 90 bd c9 d1 9d bb c0 6b bc bd 2b 4a c4 bd
       -0.070427604 -0.004816268 -0.09200239 -0.09584459
000210 e8 62 84 bd 05 42 09 be 03 32 80 3c b0 5b 26 3c
       -0.06464177 -0.1340409 0.015648847 0.010153696
000220 5f 1a 0d bd 34 bf 4f bb 7a fe ac bc 89 32 f8 bd
       -0.034448978 -0.003169966 -0.021117438 -0.12119014
000230 0f cb 02 3d 2c 33 08 be 4e 56 9b bd ca 87 97 bd
       0.031931933 -0.1330077 -0.07584821 -0.073989466
000240 0b c7 57 bc 66 41 09 bc 2f e6 b7 bd eb f1 ae 3c
       -0.013170014 -0.008377409 -0.08979451 0.02135559
000250 db 86 5f bd ac 25 99 bc 00 00 00 00 ae 26 d2 bc
       -0.054571968 -0.018694721 0.0 -0.02565321
000260 6d 2e 35 bc 08 0d f7 bc 16 10 d7 bd f3 45 bf bc
       -0.011058432 -0.030157581 -0.10501115 -0.023348784
000270 c3 fc 31 bc 00 00 00 00 bc 20 28 3c b9 37 6d be
       -0.010863486 0.0 0.010261711 -0.23165788
000280 9a 29 e5 bd ad a2 fa bb f3 9c a8 bd 5c ca 6b bd
       -0.111895755 -0.007648787 -0.08233061 -0.05756603
000290 2f 90 2b 3d 08 5c 18 be 8a a3 13 be a9 ad 7b 3c
       0.04188555 -0.14878857 -0.14417854 0.015361228
0002a0 89 67 d4 bd ce e6 f7 bd c9 d7 2e ba 6a be 18 bc
       -0.1037131 -0.121045694 -0.0006669728 -0.009322742
0002b0 fa 92 9e bd 0c 14 09 bd d1 9b 32 be b1 73 2b bd
       -0.07742877 -0.033466384 -0.17442252 -0.04185838
0002c0 a4 9a a9 bd 17 2d 7c be 00 00 00 00 10 53 f4 3c
       -0.082814485 -0.24626575 0.0 0.029824764
0002d0 7b 74 e1 bc 9e 13 d3 bd 73 54 3b bd 92 6c a7 bd
       -0.027521363 -0.10306476 -0.045734834 -0.08175005
0002e0 18 f5 98 bd 5f 25 4b 3a 53 17 81 be 94 4f 50 bd
       -0.07468623 0.0007749404 -0.25213107 -0.05085714
0002f0 be 16 79 be 13 24 b6 bd 3a c8 90 bd 00 00 00 00
       -0.24325082 -0.08893599 -0.0706944 0.0
000300 95 be 85 bd bc b1 3e bd 8c bf c6 bd 1f 7e e6 bd
       -0.06530491 -0.04655622 -0.097045034 -0.112545244
000310 40 c8 95 bd 00 00 00 00 f0 25 02 ba 96 54 ff bd
       -0.07313585 0.0 -0.00049647596 -0.12467305
000320 08 2e 0f be 73 79 46 bd 6e fb 9e bc 7f 84 3d bc
       -0.13982403 -0.048455667 -0.019407 -0.011567234
000330 f5 2f 03 be 28 79 8d be b6 cd 89 bd 3d 21 1d 3b
       -0.12811263 -0.27631497 -0.067286894 0.002397611
000340 4b 9b f9 3c a2 a2 1c bd 6e 80 1f bc 00 00 00 00
       0.030469557 -0.038241036 -0.00973521 0.0
000350 cd 88 98 be 1f 2d ea bc f8 b3 3b be 4f 2d 33 bc
       -0.2979187 -0.028585969 -0.18330371 -0.010936095
000360 4d e1 f9 3c 47 54 7d bd fc 86 79 bb e6 6a 36 be
       0.03050294 -0.06184795 -0.0038074842 -0.17814216
000370 38 4f 98 bd 8c ac a5 bd 00 00 00 00 cc 12 15 bc
       -0.07436985 -0.08089551 0.0 -0.00909872
000380 3b 5e b3 bc ea 6a d9 bd 92 19 a5 bd 15 96 4e be
       -0.021895519 -0.10616095 -0.08061518 -0.20174439
000390 a1 01 9a bd c2 37 0a bc 7f 69 89 bd e2 9b 35 be
       -0.07519842 -0.008436145 -0.06709575 -0.17735246
0003a0 d5 aa 3b be 82 11 0f be 00 00 00 00 e1 73 f0 bc
       -0.18326886 -0.13971522 0.0 -0.02935213
0003b0 a4 39 70 bd 5c 35 55 bb d4 f3 f7 bd 66 f1 d4 bd
       -0.05864872 -0.0032533025 -0.121070534 -0.103976056
0003c0 92 c0 88 3c c2 d4 a7 3b 35 cc 1c 3b 34 4d 1d bd
       0.016693387 0.0051217983 0.0023925428 -0.038403705
0003d0 0e 71 c6 bc 9d 09 aa 3a d6 89 8a bd d1 8b 41 bc
       -0.02422383 0.0012972836 -0.06764571 -0.01181312
0003e0 16 7d 82 3c 94 8b 82 be 00 00 00 00 00 00 00 00
       0.015928786 -0.25497115 0.0 0.0
0003f0 8e a1 df bd 33 c1 e0 bd 73 b8 10 bc 40 41 2b bc
       -0.10919486 -0.1097435 -0.008833039 -0.0104525685

GNN.conv3.lin.weight f4 [256, 256]
000000 ee 02 89 bc ec 14 b7 bd bf 9b a6 bd a8 b0 69 3d
       -0.01672503 -0.089395374 -0.08135175 0.05705324
000010 34 86 38 3d 4b 9f 8a 3d 92 55 b3 bd ac ff 4b be
       0.04504986 0.06768664 -0.087565556 -0.1992175
000020 0a c1 58 3d 14 8e 7e 3b 8d 86 12 be 89 52 89 bd
       0.05291847 0.003884201 -0.1430914 -0.067051955
000030 07 cd 68 3e eb 0c b2 bd ca 90 06 3c 2c 68 9e 3d
       0.22734462 -0.0869387 0.008213231 0.07734713
000040 e3 cd 36 bd d4 75 4c 3e 05 e8 b9 3c fb 90 99 bd
       -0.044629943 0.19966823 0.022693643 -0.07498356
000050 0b 62 bb ba d2 7d 0d be c1 42 ea bd d6 46 05 bd
       -0.0014296187 -0.13817528 -0.114385135 -0.032538258
000060 fc 35 52 bd 58 a7 40 bd 3b 8e f8 bd ee 44 7d 3c
       -0.051321015 -0.04703459 -0.12136503 0.015458329
000070 f9 8a ca 3d 4b 1e dc 3a 95 22 41 bc e2 e5 8d bd
       0.09889788 0.0016793696 -0.01178803 -0.06928612
000080 89 d7 27 3e a0 2a 99 bc f4 4d f7 be 3f cd 1e 3e
       0.16390814 -0.018697083 -0.4830166 0.15507983
000090 18 37 2f 3d 54 33 fe bd 84 6a 94 bd c4 10 61 bc
       0.04277715 -0.12412134 -0.07246879 -0.013736907
0000a0 cb 40 c0 bd 83 5e a4 bd 5e 8b c8 3c a2 a1 82 bd
       -0.09387358 -0.08025839 0.024480518 -0.06378485
0000b0 c5 3f 70 bc db 9e 03 3d 59 21 a2 bc 09 04 a5 3d
       -0.014663641 0.03213392 -0.019791292 0.0805741
0000c0 a1 f9 82 3d 95 a4 ed bc a0 82 a1 3d 91 ff d2 bc
       0.06395269 -0.029009143 0.07886243 -0.02575663
0000d0 45 f4 0e bd e1 9b a1 3c 8f 4c c8 3d dd 44 1a 3e
       -0.034900922 0.01972765 0.097802274 0.15065332
0000e0 a0 34 e8 be 53 45 04 3d fb aa 33 3d 9f 55 6d be
       -0.4535265 0.032292675 0.04386423 -0.23177193
0000f0 16 09 68 3e fc 4d 8b 3d 2c 4a 9e 3d 59 76 ab bd
       0.22659716 0.06801984 0.07728991 -0.083721824
000100 bf 62 c3 be 59 1e ea bc b9 2d 0c bd 0e 89 84 3d
       -0.38161275 -0.028578924 -0.034223292 0.064714536
000110 5d 1a c8 bd 26 bd d9 3d 4a 9f 71 3d 4a 85 b5 bb
       -0.097706534 0.1063178 0.0589898 -0.005539571
000120 e9 dc 9c be 8f 3e a0 be ef 6e fd 3d 37 ba 6a bd
       -0.3063729 -0.31297728 0.123746745 -0.057306495
000130 bb 92 1d 3d e1 44 15 3d 6d ac f8 bd 02 9a 75 3d
       0.03847001 0.03644264 -0.121422626 0.059961326
000140 46 41 f9 3d 1d b8 0c 3d bd 90 1e 3d ca d3 c6 3d
       0.12170653 0.03435527 0.038712252 0.09708364
000150 43 82 fb 3d 4f 41 8d be eb 84 dd 3d a3 1c 9c bd
       0.12280705 -0.2758889 0.10816368 -0.076226495
000160 59 f6 46 3d c4 ef eb bc 4f 7a 9d bc ad 33 69 be
       0.04857478 -0.028800853 -0.01922336 -0.22773619
000170 35 be f1 bd 5a 83 df 3d 0e 6e d5 bc 63 00 1f be
       -0.11803857 0.10913725 -0.026053455 -0.15527491
000180 55 c8 b6 3d cf 11 82 ba 08 e6 49 bd 3b fe 97 3b
       0.08924929 -0.000992352 -0.04929164 0.004638461
000190 a4 50 36 bd 48 6f 93 3c 00 1a 3f 3d 28 c8 f4 be
       -0.0445105 0.017997399 0.046655655 -0.47808957
0001a0 8e 5f 40 bd d6 85 59 bd 05 81 8c bd 54 d7 c5 bc
       -0.046966128 -0.05310615 -0.06860546 -0.024150528
0001b0 af e1 b2 bd 95 e3 65 bd e9 f1 20 3e 75 c4 86 bd
       -0.08734452 -0.056125242 0.15717281 -0.0658044
0001c0 c4 07 a5 bc f2 a1 d8 bd ec be 5b be ab 60 73 bd
       -0.020145305 -0.105777636 -0.2145955 -0.05941836
0001d0 3b 28 e5 bd 07 63 55 bd 36 d9 1e be 2f 23 c0 bd
       -0.11189314 -0.052096393 -0.15512547 -0.09381711
0001e0 44 54 88 be 4e ab 87 3d 0a 50 a3 bd c5 52 c5 3c
       -0.2662679 0.06624471 -0.079742506 0.02408732
0001f0 84 58 79 bc 49 ff 9f 3d b4 4c a4 3d d9 bd c6 bd
       -0.015218858 0.07812364 0.080224425 -0.09704179
000200 a6 f1 57 3d 4e 02 c1 be 64 33 31 3e 0e 79 69 bd
       0.05272069 -0.3769707 0.1730476 -0.057000212
000210 88 ae ce bd ce d6 d6 3d c7 1c 00 bd 48 d4 96 bb
       -0.10091883 0.104901895 -0.031277444 -0.0046029426
000220 2f 8e 7a bd ab e3 9b 3c 20 ee 2d 3c 52 9b db bd
       -0.061170753 0.019029459 0.010615855 -0.107229844
000230 d2 0d 02 bd 8e b4 34 3d 71 1a 1c bc f6 92 da 3c
       -0.03175146 0.044117503 -0.0095277885 0.026681405
000240 7d a1 09 bd 1e d7 cc 3c df a5 12 3d f8 8b ad 3c
       -0.033601273 0.02500492 0.03580272 0.021184906
000250 3e 0f 0d be f6 54 97 bd 07 9f c5 3d b1 4e bd bd
       -0.13775346 -0.07389252 0.09649473 -0.09243525
000260 24 2c 6b bd a0 81 05 be 04 8b b8 bc 35 c9 22 3e
       -0.057415143 -0.1303773 -0.022527225 0.15897067
000270 ce 7c a6 3d 78 73 0c 3a a8 ef de bd 55 2e 1d 3d
       0.08129273 0.00053577824 -0.108855546 0.038374264
000280 c5 ed c9 be 68 2a 96 3c 97 27 32 3e 23 2f da 3d
       -0.39439216 0.018330768 0.17397915 0.10653522
000290 06 c6 89 3b 56 07 26 3c 84 b2 90 bd 97 6e d0 bd
       0.0042045144 0.010133585 -0.07065299 -0.10177343
0002a0 8d 32 ae be aa 25 49 3e 4e 08 a7 3d 83 51 f3 bc
       -0.34022942 0.19643274 0.08155881 -0.029701954
0002b0 e7 47 18 bd 1b c5 db bd 19 71 da be 39 ae 48 3c
       -0.037177946 -0.10730954 -0.42664412 0.012248569
0002c0 32 6e c9 bb 24 a4 90 bd 34 19 c5 3d 74 3b b7 3d
       -0.0061471695 -0.07062557 0.09623948 0.08946887
0002d0 f0 0a 3e be ef f2 bf 3c 04 58 41 bd 0e f9 89 3d
       -0.1855886 0.02343127 -0.04720308 0.067369565
0002e0 98 0c 27 3d 5a d9 98 bd 71 a1 d9 3d 0e 35 61 3b
       0.040783495 -0.074633315 0.10626496 0.0034363898
0002f0 45 2f fc 3c 98 2f 8a 3c 57 fb cf 3d 53 e0 3a 3c
       0.030784259 0.016868398 0.10155361 0.011406022
000300 50 52 6c bd 9a 0e 0c 3e 6c ee 7f 3c 47 d4 c3 bd
       -0.057695687 0.13677445 0.015620809 -0.09561973
000310 e6 6e dd 3b 83 bc 50 bd b0 e7 7f 3b 22 f0 76 3d
       0.006757605 -0.05096103 0.0039048009 0.060287602
000320 21 68 19 3e 55 c1 8d 3d dd 89 5d bd ae ef d3 3c
       0.14981128 0.06921641 -0.054086555 0.025871124
000330 fd 93 a5 bc 7f f0 83 bb 06 59 15 3d 2f 28 6b 3d
       -0.020212168 -0.004026472 0.036461852 0.05741137
000340 02 de c9 3d f9 9a 83 bd cb 1f 53 bd 77 c2 c0 ba
       0.09856798 -0.06426043 -0.051543992 -0.0014706393
000350 2a 01 30 3d 39 ac 44 3e bf 31 04 bf d1 39 00 be
       0.04296986 0.19206323 -0.51638407 -0.12522055
000360 4b 8c e0 3d bc cf 0e bd b7 d0 d2 bd 0b 83 1f 3e
       0.10964259 -0.03486608 -0.102937154 0.15577333
000370 40 ce e9 3d 82 0d 30 3d d2 ae 0a bd ec 3b 22 3e
       0.11416292 0.042981632 -0.033858128 0.15843171
000380 65 92 0c 3d f1 64 d9 be 29 04 dd bd d7 55 ce bd
       0.0343193 -0.42459825 -0.10791809 -0.100749664
000390 ce 8a df bd 15 f9 4f bc 55 f0 3f 3e ef 8a d0 be
       -0.10915147 -0.012693663 0.18744023 -0.40730998
0003a0 b4 1f 2d be 58 a6 af 3d bb 20 12 3e c7 30 a9 3d
       -0.16906625 0.085766494 0.14270298 0.08261257
0003b0 86 cd cc be a2 5d 10 bc 60 ec 67 bd 8b 40 98 bc
       -0.40000552 -0.008811386 -0.05662191 -0.018585464
0003c0 a2 31 7b 3d 95 8a 28 be 68 8a 1c 3d bd 96 b1 bd
       0.06132663 -0.16459115 0.038217932 -0.08671329
0003d0 36 23 14 3d e7 43 72 bd 28 89 91 bd 8b df 22 bc
       0.036166392 -0.059146788 -0.071062386 -0.009940992
0003e0 cf df bf 3d 20 88 26 3c 51 1b 5a 3c eb 8a e5 3d
       0.0936886 0.010164291 0.013312177 0.11208137
0003f0 8a 06 bb bc da 63 52 3a 6c bc ae bd 38 28 42 3e
       -0.022830267 0.00080257433 -0.08532032 0.18960655
