output/gru_model.pth (torch, 796431 bytes, 15 tensors)

GNN.gru1.weight f4 [10, 64, 64]
-0.167149 0.023343135 -0.10199504 -0.020492254 -0.090324916 -0.15075576 0.09654736 -0.088037826
-0.059608653 0.0038658397 -0.085294746 -0.11812414 -0.12459096 0.047464333 0.028807865 -0.10177519
0.098793 -0.12804496 -0.07036934 -0.092407376 -0.14538042 0.01099906 -0.1585586 0.064048305
0.06852647 0.059329305 -0.0460429 -0.0019938103 -0.10772656 0.020957194 0.0043472745 -0.19196595
-0.01659509 -0.13844474 0.0049361577 0.11284766 0.015900629 0.07585674 0.054202933 -0.08399776
-0.10464097 0.09702195 0.01775794 -0.15170111 0.07003433 0.091536686 -0.1583929 -0.073849596
0.07806874 0.0069147213 0.11143074 -0.09999554 0.09884449 -0.07745464 0.09682159 -0.02710488
-0.06338083 0.06521665 -0.05170253 0.11553986 0.08369064 0.033486333 0.07785787 -0.036862828
0.03822986 -0.024207553 -0.08543528 0.034152724 -0.07145627 0.08458416 0.057572007 -0.09283539
0.06647418 -0.11009097 0.11080844 -0.052846722 -0.050780367 -0.084313124 -0.08978354 -0.018320706
0.013327767 -0.066422075 0.11359332 -0.08327822 0.099505894 0.085275084 0.058229525 -0.008499097
-0.11949823 -0.060075946 0.03726376 0.03898373 -0.13402005 -0.082065105 -0.0059688995 -0.09241838
0.04856554 0.0870271 0.01852486 0.14280859 0.11668113 0.15011704 -0.027004568 0.11707685
0.073441215 -0.09094878 0.0229611 0.03593935 -0.01860875 -0.020727945 -0.053967945 -0.112579554
-0.04404971 0.04981035 0.047696218 -0.09440915 0.0044068466 -0.040177155 0.015444719 0.02519049
0.10292652 0.015441751 -0.01697012 0.043782096 -0.12268571 -0.09604226 -0.112567425 -0.09684922
0.24797447 0.0022759992 0.075922444 -0.02900313 -0.083674274 0.062060658 -0.063563384 0.0036526439
-0.040107347 0.02344403 -0.0034600524 0.034639977 0.11835095 -0.0682098 0.16531067 0.19213316
-0.04551246 0.17079091 0.08221025 0.113621406 0.23280819 -0.18705422 0.24704275 -0.014427831
-0.046052556 -0.0124100065 -0.0010990594 -0.06483292 -0.008341299 0.06577509 -0.15083241 0.2422315
0.15388788 0.1609683 0.055594508 -0.12033031 0.08013029 0.14952514 0.11787292 -0.0518598
0.047362622 -0.16838361 -0.11566272 0.12474248 0.06781856 0.014842663 0.19514947 0.009650208
0.17491153 0.036871288 0.030152032 0.043601606 -0.09142303 0.1391359 -0.007146662 0.19613583
-0.059182823 -0.16628157 0.060064375 -0.063817225 -0.02214554 -0.098586835 0.14696285 0.014885795
-0.032193944 -0.0128721 0.05763419 -0.022489011 0.00319165 0.026144236 -0.018040314 0.09476048
0.042539 0.0630589 0.08220686 0.12186894 -0.03235133 0.06910923 0.08231564 -0.11028932
-0.09530136 0.0642387 0.0333149 0.036788836 0.009742692 -0.096447006 -0.111820266 -0.052731484
-0.121415004 -0.0601435 -0.07182498 0.013185129 0.099927515 -0.066547275 -0.0907338 0.0113027245
0.07760878 -0.10629934 0.04688716 -0.02297531 -0.047476098 -0.02847302 -0.038223445 -0.009479016
0.09687202 0.11102903 -0.057276532 -0.10164739 0.06337024 -0.010909125 -0.0717168 0.0050699413
0.06442462 0.12050977 0.078094885 -0.07968333 -0.09952845 0.08959825 -0.016430035 0.008181348
-0.122730404 0.014764786 -0.020688862 0.014002025 0.06228298 -0.017286241 -0.042960033 -0.041692838
00000000: 1c29 2bbe 1a3a bf3c c7e2 d0bd 5fdf a7bc
00000010: 45fc b8bd b85f 1abe 9fba c53d 2d4d b4bd
00000020: 3428 74bd 075a 7d3b 03af aebd 12eb f1bd
00000030: 8c29 ffbd f669 423d 79fe eb3c 836f d0bd
00000040: fc53 ca3d 381e 03be cd1d 90bd 1440 bdbd
00000050: 9bde 14be 6735 343c 305d 22be c22b 833d
00000060: 9b57 8c3d 4903 733d 7b97 3cbd 96aa 02bb
00000070: be9f dcbd 6cae ab3c 9573 8e3b b992 44be
00000080: 6df2 87bc 75c4 0dbe 7ebf a13b ad1c e73d
00000090: 0942 823c c75a 9b3d e503 5e3d 0507 acbd
000000a0: 014e d6bd 72b3 c63d 1979 913c 8957 1bbe
000000b0: 296e 8f3d 9677 bb3d c031 22be 753e 97bd
000000c0: 81e2 9f3d e394 e23b cd35 e43d 76ca ccbd
000000d0: fb6e ca3d 8aa0 9ebd 664a c63d 0e0b debc
000000e0: cfcd 81bd 4f90 853d 08c6 53bd 2aa0 ec3d
000000f0: 0066 ab3d f728 093d f273 9f3d 7afd 16bd
00000100: ea96 1c3d eb4e c6bc b1f8 aebd bae3 0b3d
00000110: aa57 92bd 763a ad3d a0d0 6b3d 7b20 bebd
00000120: 9d23 883d 6077 e1bd 89ef e23d ce75 58bd
00000130: 13ff 4fbd 5cac acbd 6fe0 b7bd 4e15 96bc
00000140: b55c 5a3c 4c08 88bd 9da3 e83d c58d aabd
00000150: bfc9 cb3d b4a4 ae3d 1582 6e3d cc3f 0bbc
00000160: 7dbb f4bd 3212 76bd e2a1 183d 67ad 1f3d
00000170: 8d3c 09be c011 a8bd c296 c3bb d945 bdbd
00000180: a9ec 463d 443b b23d 72c1 973c 6a3c 123e
00000190: 84f6 ee3d 48b8 193e af38 ddbc fdc5 ef3d
000001a0: 5968 963d 5b43 babd eb18 bc3c 2435 133d
000001b0: 6171 98bc a7cd a9bc 7e0d 5dbd 1c90 e6bd
000001c0: 786d 34bd f005 4c3d 1c5d 433d 9659 c1bd
000001d0: 4f67 903b cd90 24bd d90b 7d3c 495c ce3c
000001e0: 24cb d23d 66ff 7c3c ec04 8bbc db54 333d
000001f0: a542 fbbd ceb1 c4bd c089 e6bd e258 c6bd
00000200: 05ed 7d3e ee28 153b 3a7d 9b3d f997 edbc
00000210: 6b5d abbd 5133 7e3d 852d 82bd 3261 6f3b
00000220: 9a47 24bd b20d c03c 0cc2 62bb a6e2 0d3d
00000230: fc61 f23d 94b1 8bbd 3347 293e 8ebe 443e
00000240: 466b 3abd d0e3 2e3e d95d a83d 57b2 e83d
00000250: 4565 6e3e 248b 3fbe c6f8 7c3e b662 6cbc
00000260: 9ba1 3cbd 5753 4bbc 500e 90ba 1fc7 84bd
00000270: f2a9 08bc 17b5 863d d073 1abe 890b 783e
00000280: c994 1d3e e0d4 243e 11b7 633d bd6f f6bd
00000290: 591b a43d 1e1d 193e 5c67 f13d f16a 54bd
000002a0: 4fff 413d c16c 2cbe 93e0 ecbd fc78 ff3d
000002b0: 75e4 8a3d a42e 733c 43d5 473e e81b 1e3c
000002c0: 021c 333e 5906 173d 6501 f73c 9997 323d
000002d0: ff3b bbbd a479 0e3e 8c2e eabb d5d7 483e
000002e0: b069 72bd b745 2abe 1006 763d 9bb2 82bd
000002f0: 906a b5bc e5e7 c9bd 6e7d 163e 8de3 733c
00000300: ccdd 03bd 80e5 52bc d411 6c3d e03a b8bc
00000310: 002b 513b 702c d63c 48c9 93bc c811 c23d
00000320: 603d 2e3d 0625 813d 125c a83d 6c96 f93d
00000330: d482 04bd 2489 8d3d 1a95 a83d 5edf e1bd
00000340: 5c2d c3bd 948f 833d 3475 083d e4af 163d
00000350: d09f 1f3c 0286 c5bd 0602 e5bd f8fc 57bd
00000360: 6ea8 f8bd 0859 76bd fa18 93bd 7006 583c
00000370: cca6 cc3d f049 88bd a4d2 b9bd 102f 393c
00000380: 5af1 9e3d 78b3 d9bd c00c 403d b836 bcbc
00000390: 4c76 42bd 4040 e9bc 3090 1cbd e04d 1bbc
000003a0: d664 c63d 3063 e33d cc9a 6abd 822c d0bd
000003b0: 42c8 813d 30bc 32bc 42e0 92bd c021 a63b
000003c0: 0ef1 833d d4cd f63d 36f0 9f3d 0431 a3bd
000003d0: 92d5 cbbd 4a7f b73d 4898 86bc 100b 063c
000003e0: 145a fbbd 00e8 713c b07b a9bc c068 653c
000003f0: 701c 7f3d e09b 8dbc dcf6 2fbd 1cc6 2abd

GNN.gru1.rnn.weight_ih f4 [192, 64]
0.032963347 -0.007862414 -0.07920319 -0.056871455 0.12527391 0.09133909 0.07971284 -0.0155318
-0.01359968 -0.026932454 0.018593902 -0.042259566 -0.10481396 0.1121365 0.01180282 0.052262384
0.010434655 -0.08050121 0.06524321 -0.0038296462 0.008109096 0.044371363 0.11159744 0.11688243
-0.04447781 0.074385844 0.08441764 -0.08416158 0.08072065 0.07611186 0.104154326 -0.12685183
-0.012214723 -0.015962668 -0.0500323 0.10418418 -0.04541011 0.08890145 0.04781223 0.10775077
0.0023336986 0.016512092 0.015086503 -0.04859065 -0.095985256 -0.09004177 -0.04425938 0.08352796
-0.046800148 -0.08846677 -0.10424934 0.072418556 -0.11410616 -0.0027286946 0.025609018 -0.04378244
0.11720053 0.043934453 0.013679714 -0.09108747 -0.0016814691 0.038837012 -0.0866577 0.03204257
-0.01965808 0.09303808 -0.13254431 0.06417425 0.025140407 -0.13173592 0.046042223 0.054123115
-0.065192 -0.0036017345 0.0069307154 0.08977447 0.04352906 0.03376655 0.008117312 -0.08303983
-0.022090577 -0.052611303 0.07332721 -0.006880681 -0.11670463 0.10749472 0.04583924 0.06582388
0.05008205 0.057130292 -0.08196025 -0.0016071254 -0.11624235 -0.13431829 -0.13663623 0.08267242
-0.06261464 -0.062269498 -0.0072684805 0.015043291 -0.009047457 0.07594952 -0.057839956 -0.09675864
0.030879965 -0.10002911 0.008624154 0.05883033 0.042468455 -0.0030582603 -0.09509288 -0.00068630517
-0.046689503 -0.0071434453 -0.12401203 -0.09252706 0.055876948 5.9977996e-05 0.1068952 0.046995677
-0.0018074724 0.031334627 0.08741412 -0.05797539 0.031338945 -0.10050144 -0.041891888 0.092005305
0.043327183 -0.09509739 -0.12509757 -0.087560125 0.04779572 -0.033655167 0.10519281 -0.0138741005
0.109139085 0.052178364 0.084568016 -0.07230153 0.06470192 0.1130267 0.01714583 0.1020331
0.101675704 0.0869753 0.064258225 0.05774558 0.037315898 0.04455883 0.081875175 -0.020835252
0.13246837 -0.021930577 -0.008648412 -0.0480782 0.07757302 -0.009638663 0.040423933 0.034931593
-0.026448479 -0.012259371 -0.10821024 -0.020739751 0.011350711 0.09401192 0.076158404 0.0020096314
0.078138165 -0.08455172 0.107071735 0.056651108 0.0072652916 0.024166813 0.083991654 0.031605005
0.08793237 0.025362715 -0.029456992 -0.0114767505 0.06492166 -0.068142846 -0.05079515 -0.08036936
0.13110034 -0.0980363 0.11211092 0.054679137 -0.08614808 -0.004037668 -0.09659732 -0.02813779
0.046345614 0.063244745 -0.03122183 0.026707212 0.051404994 -0.11212638 -0.049063146 0.079181306
-0.034691237 -0.11236079 0.044533852 0.10387247 0.10588151 0.05032412 0.090266734 -0.09361133
0.08776995 -0.01962202 -0.041061375 -0.122695975 -0.031920157 0.11289088 -0.0009400611 -0.09089338
-0.05201336 -0.020352988 0.05291013 0.061155353 0.06853477 0.08332926 -0.012947488 -0.040689442
0.057673 -0.06047461 -0.10897665 0.09884696 0.09020915 -0.05895967 0.026210945 -0.05101007
0.060881246 0.01861448 -0.1254169 -0.09142877 -0.10380812 -0.014416447 0.0051268307 -0.1284056
0.025146842 0.062940836 0.055154875 -0.04807355 -0.040804513 0.12887147 -0.029585863 -0.12085304
-0.06259701 0.024912799 -0.010133461 0.05007514 0.04194426 0.08682464 -0.046689596 0.112900466
00000000: 9304 073d 5bd1 00bc 4835 a2bd 0bf2 68bd
00000010: ce47 003e fd0f bb3d 7c40 a33d 1779 7ebc
00000020: 31d1 5ebc 73a1 dcbc 3d52 983c 5e18 2dbd
00000030: b4a8 d6bd d2a7 e53d 9d60 413c 1511 563d
00000040: 1df6 2a3c d2dd a4bd 3b9e 853d cdfa 7abb
00000050: 04dc 043c bfbe 353d 338d e43d 0e60 ef3d
00000060: 5d2e 36bd 9b57 983d 28e3 ac3d e85c acbd
00000070: de50 a53d 89e0 9b3d dd4e d53d 72e5 01be
00000080: 4320 48bc 24c4 82bc abee 4cbd 845e d53d
00000090: f4ff 39bd f711 b63d c2d6 433d 70ac dc3d
000000a0: f7f0 183b 5e44 873c 612d 773c fd06 47bd
000000b0: eb93 c4bd d267 b8bd 5349 35bd b510 ab3d
000000c0: 83b1 3fbd 112e b5bd ae80 d5bd 2e50 943d
000000d0: 7eb0 e9bd e6d3 32bb 01ca d13c 3755 33bd
000000e0: d506 f03d 9df4 333d e120 603c 118c babd
000000f0: be64 dcba 8f13 1f3d 9879 b1bd 123f 033d
00000100: fb09 a1bc c08a be3d b2b9 07be ca6d 833d
00000110: 41f3 cd3c c8e5 06be c596 3c3d 33b0 5d3d
00000120: 6283 85bd 140b 6cbb 0e1b e33b addb b73d
00000130: 874b 323d cb4e 0a3d 79fe 043c c910 aabd
00000140: 4cf7 b4bc f37e 57bd 942c 963d 5677 e1bb
00000150: d602 efbd 3126 dc3d edc1 3b3d acce 863d
00000160: d622 4d3d 7401 6a3d c7da a7bd 2ea6 d2ba
00000170: 7810 eebd bc8a 09be 5eea 0bbe 2850 a93d
00000180: 1b3c 80bd 4d0e 7fbd 6f2c eebb 2378 763c
00000190: c93b 14bc 6c8b 9b3d 97e9 6cbd 6529 c6bd
000001a0: fbf7 fc3c 10dc ccbd 534c 0d3c 12f8 703d
000001b0: 67f3 2d3d 186d 48bb 0ec0 c2bd 29e9 33ba
000001c0: 7e3d 3fbd 9013 eabb 05fa fdbd d47e bdbd
000001d0: 3adf 643d e290 7b38 dfeb da3d 8a7e 403d
000001e0: b6e8 ecba bd58 003d 2d06 b33d 9a77 6dbd
000001f0: 445d 003d b3d3 cdbd d496 2bbd 476d bc3d
00000200: d877 313d 6cc2 c2bd 9419 00be b952 b3bd
00000210: 72c5 433d 00da 09bd 546f d73d 3250 63bc
00000220: 5084 df3d fbb8 553d ff31 ad3d d312 94bd
00000230: 7182 843d 8b7a e73d 6975 8c3c bbf6 d03d
00000240: 5a3b d03d 1b20 b23d d199 833d a186 6c3d
00000250: 8ed8 183d 5283 363d 2cae a73d b1ae aabc
00000260: caa5 073e c1a7 b3bc 12b2 0dbc a6ed 44bd
00000270: 9ade 9e3d 7ceb 1dbc 9193 253d 6e14 0f3d
00000280: 7baa d8bc 87db 48bc 559d ddbd 69e6 a9bc
00000290: 55f8 393c 5289 c03d f0f8 9b3d 05b4 033b
000002a0: e706 a03d 7429 adbd 6d48 db3d fe0a 683d
000002b0: af11 ee3b 7bf9 c53c d103 ac3d 4074 013d
000002c0: e315 b43d 78c5 cf3c ca4f f1bc fb08 3cbc
000002d0: a6f5 843d 7a8e 8bbd 930e 50bd b198 a4bd
000002e0: 2b3f 063e 41c7 c8bd 699a e53d 3bf7 5f3d
000002f0: 686e b0bd 6a4e 84bb d1d4 c5bd 3981 e6bc
00000300: e6d4 3d3d 7686 813d ecc4 ffbc 15c9 da3c
00000310: 0b8e 523d 84a2 e5bd 70f6 48bd cf29 a23d
00000320: 6618 0ebd 6a1d e6bd 2169 363d 17bb d43d
00000330: 68d8 d83d aa20 4e3d c4dd b83d 4cb7 bfbd
00000340: bbc0 b33d 5cbe a0bc f92f 28bd 0748 fbbd
00000350: b6be 02bd 5533 e73d 6f6e 76ba 4f26 babd
00000360: f60b 55bd 4fbb a6bc 4bb8 583d 097e 7a3d
00000370: f55b 8c3d 88a8 aa3d b321 54bc f9a9 26bd
00000380: 863a 6c3d 3ab4 77bd 262f dfbd 4670 ca3d
00000390: 93bf b83d b27f 71bd 56b8 d63c efef 50bd
000003a0: 9d5e 793d 657d 983c 4a6d 00be 023f bbbd
000003b0: 5a99 d4bd f632 6cbc f9fe a73b c27c 03be
000003c0: c000 ce3c 20e7 803d 14ea 613d c5e8 44bd
000003d0: a222 27bd e2f6 033e 0d5e f2bc cc81 f7bd
000003e0: dc32 80bd ed15 cc3c d106 26bc 971b 4d3d
000003f0: bfcd 2b3d 1ed1 b13d 973d 3fbd 5c38 e73d

GNN.gru1.rnn.weight_hh f4 [192, 64]
-0.11444003 -0.081853285 -0.09312678 0.09561483 -0.014695846 0.09016181 -0.08761032 -0.02874241
0.09695555 0.003117949 0.050409295 -0.018875219 0.01265044 -0.05726783 -0.1120544 0.07098405
0.03419315 0.07815107 -0.08924346 0.06411612 -0.07937545 -0.0036753875 0.081627615 0.06522444
-0.037074476 -0.12961166 -0.05948156 0.10582354 -0.040265843 -0.100861125 -0.06414995 0.11754309
0.103040926 0.11785266 0.015296234 0.045682795 -0.07687384 0.1140521 0.07813539 0.11449301
0.049538337 -0.021840911 -0.119290024 0.016869009 -0.034022037 0.06775854 -0.059947688 0.08148072
0.06744583 0.06661634 -0.092756346 0.09996104 0.11140139 -0.086560056 -0.02333528 -0.070122145
-0.048030343 0.06638865 0.07777766 0.121792205 -0.036312524 0.06984397 -7.4908225e-05 0.1059115
0.07415104 0.14896461 -0.018668987 -0.004661975 0.038076386 -0.1060634 0.0072334246 -0.07306086
-0.030420026 -0.08493258 0.10763398 -0.0549106 0.057867542 -0.031696342 0.15757972 0.0058769947
-0.10496374 -0.093069635 0.07451051 0.062584735 -0.026935387 0.05650342 0.04168284 0.10289681
0.033423856 -0.069783956 -0.06237635 0.015207935 -0.027534764 0.035167553 -0.13756739 0.044209123
-0.11066046 -0.09128031 -0.011557832 0.008968552 0.10333764 -0.095359646 0.011156072 -0.042492628
0.10038335 -0.040251903 -0.0065062237 -0.05725058 0.0006110653 -0.043477535 0.053941157 0.015413876
0.11624195 0.05172037 -0.066811696 -0.013543732 0.10208076 0.072302856 0.09584692 -0.052474644
0.078289814 0.07342529 -0.084340915 0.09481262 0.018136073 -0.16285849 -0.014229971 -0.03981978
-0.06420106 0.032420434 -0.05198236 0.06618955 0.11303451 -0.034576114 0.06567387 -0.11447222
-0.111600965 0.097276844 -0.02796247 0.07309836 0.0500148 -0.005104241 0.12679872 -0.04642153
0.07459374 0.073083706 -0.031045336 0.002473521 0.036653094 -0.011422773 -0.09923398 -0.0047220057
0.058670264 -0.09172968 -0.03334521 -0.10347478 0.06895542 0.04641576 0.09147199 -0.0140616065
-0.08707015 0.09495727 -0.060117297 0.112335704 -0.112737045 0.020175813 0.14062412 -0.0059920023
0.04921456 -0.015678825 -0.009289772 0.064908564 -0.031908065 -0.09396571 -0.070375696 0.08747816
-0.074737 0.022098294 0.06349913 0.10074251 0.13327502 0.03833558 -0.11516975 0.031746868
0.032222316 -0.088326864 0.04428117 0.05329099 0.0110399155 0.108615346 -0.07560779 0.029868703
0.120963626 -0.0716291 -0.020190503 -0.056946065 -0.12349091 0.10135693 -0.006506922 -0.10676201
-0.011247643 0.07510016 -0.05760486 -0.0017594015 -0.03539098 0.11299126 -0.090288185 -0.09907241
0.105703354 -0.05686745 -0.03903758 0.040763903 0.021061713 0.00394466 -0.057677533 0.070554726
-0.09943246 -0.0075581223 0.11808811 0.11096581 0.07694504 -0.05206997 0.025910016 0.12122289
-0.06311327 -0.016929097 -0.05512602 -0.085708775 -0.10166422 0.022726145 0.030071035 0.08088921
-0.073803626 -0.024355024 -0.061978213 0.065037355 0.037648372 -0.062182814 0.015213419 -0.060557306
0.037105147 -0.10160003 -0.037461326 0.073464535 -0.0859508 -0.050148312 0.03489567 0.11785742
-0.08603767 0.07405357 -0.07385804 0.06828403 0.013761562 -0.12384084 -0.029405741 -0.0055046314
00000000: 895f eabd b2a2 a7bd 41b9 bebd b5d1 c33d
00000010: d8c6 70bc c1a6 b83d 0a6d b3bd 3475 ebbc
00000020: a290 c63d 8156 4c3b fa79 4e3d 34a0 9abc
00000030: cb43 4f3c ac91 6abd c77c e5bd 1660 913d
00000040: 1e0e 0c3d ab0d a03d 46c5 b6bd 504f 833d
00000050: 998f a2bd c5de 70bb 612c a73d 6494 853d
00000060: 68db 17bd ebb8 04be f0a2 73bd 03ba d83d
00000070: cced 24bd 4790 cebd 0d61 83bd 6eba f03d
00000080: 1f07 d33d bc5c f13d 0e9d 7a3c e21d 3b3d
00000090: 0870 9dbd 2694 e93d 7305 a03d 507b ea3d
000000a0: b6e8 4a3d b6eb b2bc 544e f4bd e030 8a3c
000000b0: b15a 0bbd fdc4 8a3d b58b 75bd 5ddf a63d
000000c0: 0a21 8a3d 266e 883d 0af7 bdbd 60b8 cc3d
000000d0: 6926 e43d 6646 b1bd a129 bfbc 339c 8fbd
000000e0: 77bb 44bd c6f6 873d e549 9f3d 316e f93d
000000f0: 71bc 14bd 5b0a 8f3d 0c18 9db8 21e8 d83d
00000100: 80dc 973d 2e8a 183e b4ef 98bc 7bc3 98bb
00000110: fcf5 1b3d c537 d9bd 5d06 ed3b efa0 95bd
00000120: 6b33 f9bc 22f1 adbd 346f dc3d f0e9 60bd
00000130: 8406 6d3d 06d4 01bd 945c 213e ce93 c03b
00000140: 3bf7 d6bd 4b9b bebd f798 983d 6d2c 803d
00000150: 9aa7 dcbc 2170 673d a0bb 2a3d 90bb d23d
00000160: 74e7 083d e4ea 8ebd 587e 7fbd b42a 793c
00000170: 9690 e1bc da0b 103d 77de 0cbe a014 353d
00000180: f4a1 e2bd 2cf1 babd 105d 3dbc d5f0 123c
00000190: afa2 d33d eb4b c3bd f5c7 363c c00c 2ebd
000001a0: c995 cd3d 2edf 24bd 2932 d5bb 967f 6abd
000001b0: e62f 203a 8015 32bd 67f1 5c3d 7b8a 7c3c
000001c0: 4210 ee3d bdd8 533d 92d4 88bd 88e6 5dbc
000001d0: b80f d13d 8513 943d 644b c43d a7ef 56bd
000001e0: 6956 a03d 0060 963d eeba acbd 1e2d c23d
000001f0: 1a92 943c 60c4 26be d324 69bc 111a 23bd
00000200: d87b 83bd 4acb 043d 75eb 54bd 638e 873d
00000210: a37e e73d af9f 0dbd 0680 863d 6970 eabd
00000220: 0c8f e4bd 1539 c73d 8d11 e5bc 98b4 953d
00000230: 52dc 4c3d 7a41 a7bb 86d7 013e 8124 3ebd
00000240: 9ac4 983d e9ac 953d ca52 febc cc1a 223b
00000250: 8e21 163d 9526 3bbc 2f3b cbbd 0ebb 9abb
00000260: 3b50 703d c5dc bbbd fd94 08bd 96ea d3bd
00000270: 8038 8d3d 741e 3e3d ab55 bb3d a762 66bc
00000280: d651 b2bd f578 c23d 8e3d 76bd 4310 e63d
00000290: aee2 e6bd bf47 a53c c5ff 0f3e 8f58 c4bb
000002a0: 3595 493d e170 80bc 2134 18bc c8ee 843d
000002b0: 08b2 02bd 1871 c0bd 2221 90bd c027 b33d
000002c0: b60f 99bd 7b07 b53c d50b 823d 1752 ce3d
000002d0: 3f79 083e c505 1d3d 1ede ebbd 0109 023d
000002e0: 8cfb 033d b7e4 b4bd 2c60 353d a747 5a3d
000002f0: c3e0 343c b971 de3d 42d8 9abd 36af f43c
00000300: c7bb f73d 47b2 92bd 8e66 a5bc 4740 69bd
00000310: cde8 fcbd 3994 cf3d 0538 d5bb 0aa6 dabd
00000320: 0948 38bc 1dce 993d 13f3 6bbd b89b e6ba
00000330: 22f6 10bd f667 e73d 03e9 b8bd 7ae6 cabd
00000340: 007b d83d d8ed 68bd dfe5 1fbd 0df8 263d
00000350: 9d89 ac3c 3542 813b 473f 6cbd ff7e 903d
00000360: 3fa3 cbbd 20aa f7bb 2ed8 f13d 0b42 e33d
00000370: 5c95 9d3d 5247 55bd 3e41 d43c b543 f83d
00000380: 8841 81bd e4ae 8abc d2cb 61bd 1588 afbd
00000390: 5535 d0bd 2e2c ba3c 8857 f63c 3ea9 a53d
000003a0: 5b26 97bd 3084 c7bc dedc 7dbd 4e32 853d
000003b0: 2e35 1a3d 68b3 7ebd b441 793c f00a 78bd
000003c0: 91fb 173d ad13 d0bd 0c71 19bd 9374 963d
000003d0: f906 b0bd 5168 4dbd c3ee 0e3d 3b5f f13d
000003e0: 8534 b0bd 66a9 973d e242 97bd 7fd8 8b3d
000003f0: 2d78 613c 44a0 fdbd 4fe4 f0bc 3260 b4bb

GNN.gru1.rnn.bias_ih f4 [192]
0.066443525 0.16685905 -0.07397414 0.08358748 0.042536095 0.16048023 0.06676736 -0.027586715
-0.024143703 -0.115334995 -0.056340966 0.12570933 0.03308805 0.12059363 -0.005226288 0.03658606
-0.037030727 -0.095865756 0.020405814 0.106286466 0.09294261 0.15357435 0.08059925 0.10383394
0.08128233 0.11787937 0.04642228 -0.07161452 0.09622705 -0.00014453733 0.06389495 0.104195535
0.11079953 0.1127801 -0.0036030367 -0.04082363 0.08225397 0.04160793 -0.09471851 0.06995346
0.07586644 0.14600155 -0.07426241 0.07762747 -0.044989172 -0.07031858 -0.012628757 -0.06939358
-0.01938202 0.11415554 -0.105302006 -0.0029758045 -0.051577326 0.037909623 0.003913804 -0.052265827
-0.10211019 0.06969444 0.14560573 -0.088737085 -0.09735524 0.040848184 0.1839913 0.07733357
0.049795337 -4.4150132e-05 0.20484129 -0.083271734 -0.051692583 -0.08729627 -0.007387568 -0.0025426447
-0.04431993 -0.05915891 0.04461844 -0.10120136 0.09236814 -0.087025896 0.050921455 -0.06470093
-0.073689885 0.028587356 0.0042826757 0.08936727 0.08825007 0.08860236 -0.10566848 0.08388474
-0.08069446 0.09474354 0.044529263 -0.0039036348 -0.12154067 -0.1024655 -0.07885071 -0.03061167
0.051081426 -0.017261302 -0.12898338 0.063521564 0.02176464 -0.121071756 0.089308724 -0.039290305
0.08469432 0.03929852 0.09583762 -0.109695666 -0.04462762 -0.12159538 0.06708467 0.112955496
-0.0346783 -0.13852741 -0.08704999 0.11933677 0.042549368 0.053596467 -0.047163274 0.11561015
-0.06701502 -0.1378451 -0.07817886 0.03588878 -0.08698726 0.050912037 -0.13342068 -0.11590715
0.017774303 0.11192765 -0.0993857 -0.101843014 0.12025221 -0.13385236 0.061234772 -0.07654746
0.06258667 -0.11191458 0.038301412 0.160421 -0.06980387 -0.08296172 0.06697949 0.008749787
-0.07499261 -0.019584592 -0.040812496 0.0053849695 0.04241327 0.1646625 -0.15194139 0.11119655
0.008242101 0.002858371 0.12835036 -0.05706059 -0.03640438 0.021207847 0.017468901 0.10877357
-0.098316155 -0.1506635 -0.017848134 0.055412535 -0.06668557 0.11715112 0.14307371 -0.09628242
0.009545838 -0.11810204 -0.11862797 0.0886587 0.049984645 -0.1219642 -0.101642676 -0.045561325
0.13808289 0.15049605 0.06524004 0.12320459 0.13519771 -0.055540644 0.052193232 0.09589794
0.062649384 0.02207542 -0.0011669027 0.011312046 0.06485998 -0.06548623 0.076533675 -0.1216788
00000000: 8b13 883d 19dd 2a3e c17f 97bd ea2f ab3d
00000010: 543a 2e3d ee54 243e 53bd 883d 89fd e1bc
00000020: 04c9 c5bc c134 ecbd c9c5 66bd f2b9 003e
00000030: 5687 073d cbf9 f63d 4841 abbb 44db 153d
00000040: 88ad 17bd 4455 c4bd 182a a73c b8ac d93d
00000050: b258 be3d 9842 1d3e 3811 a53d e4a6 d43d
00000060: 5a77 a63d bd6a f13d 4a25 3e3d a2aa 92bd
00000070: b012 c53d f28e 17b9 5bdb 823d 7864 d53d
00000080: ddea e23d 41f9 e63d ed20 6cbb ae36 27bd
00000090: c574 a83d 146d 2a3d c7fb c1bd c243 8f3d
000000a0: dd5f 9b3d 6e81 153e e416 98bd 27fb 9e3d
000000b0: 9146 38bd 3003 90bd d9e8 4ebc 391e 8ebd
000000c0: 0bc7 9ebc 61ca e93d 94a8 d7bd b705 43bb
000000d0: bf42 53bd 1f47 1b3d 5e3f 803b b114 56bd
000000e0: 261f d1bd f5bb 8e3d ab19 153e cabb b5bd
000000f0: 2f62 c7bd 6d50 273d 3768 3c3e 1061 9e3d
00000100: 32f6 4b3d d82d 39b8 eac1 513e 5f8a aabd
00000110: 9abb 53bd 63c8 b2bd 6913 f2bb 80a2 26bb
00000120: d188 35bd 9d50 72bd d3c1 363d a942 cfbd
00000130: 822b bd3d a23a b2bd 0493 503d ec81 84bd
00000140: b9ea 96bd 0830 ea3c b055 8c3b 3006 b73d
00000150: 74bc b43d 2775 b53d b768 d8bd c3cb ab3d
00000160: 2343 a5bd e708 c23d 5164 363d 20d4 7fbb
00000170: 51ea f8bd 6fd9 d1bd 7b7c a1bd 53c5 fabc
00000180: c23a 513d 9367 8dbc 3814 04be 9817 823d
00000190: c24b b23c 78f4 f7bd 7ee7 b63d dfee 20bd
000001a0: 3774 ad3d 7cf7 203d 8446 c43d 1fa8 e0bd
000001b0: 74cb 36bd 0007 f9bd b063 893d 3655 e73d
000001c0: d50a 0ebd 21da 0dbe 4447 b2bd d666 f43d
000001d0: 3f48 2e3d f887 5b3d 472e 41bd 04c5 ec3d
000001e0: 2c3f 89bd 4427 0dbe 3d1c a0bd 1d00 133d
000001f0: 6026 b2bd 2489 503d 6e9f 08be ba60 edbd
00000200: 6a9b 913c 533a e53d bb8a cbbd 1293 d0bd
00000210: ca46 f63d 9810 09be 50d1 7a3d eac4 9cbd
00000220: 712d 803d 7933 e5bd f1e1 1c3d 6745 243e
00000230: 55f5 8ebd d6e7 a9bd 8b2c 893d 445b 0f3c
00000240: ba95 99bd de6f a0bc 012b 27bd 6674 b03b
00000250: 89b9 2d3d 499d 283e 8696 1bbe 04bb e33d
00000260: e109 073c 8253 3b3b 476e 033e 5db8 69bd
00000270: c21c 15bd 14bc ad3c f11a 8f3c adc4 de3d
00000280: fb59 c9bd 8847 1abe 4036 92bc 41f8 623d
00000290: 7292 88bd edec ef3d ea81 123e b82f c5bd
000002a0: 2666 1c3c 7bdf f1bd 39f3 f2bd b192 b53d
000002b0: b3bc 4c3d 5ec8 f9bd 092a d0bd 839e 3abd
000002c0: 9a65 0d3e a31b 1a3e 929c 853d b052 fc3d
000002d0: 4571 0a3e 967e 63bd 92c8 553d 2466 c43d
000002e0: 524e 803d 83d7 b43c c2f2 98ba 2956 393c
000002f0: 4fd5 843d a51d 86bd b0bd 9c3d bc32 f9bd

GNN.gru1.rnn.bias_hh f4 [192]
-0.113952756 -0.052189823 0.010366112 0.06549701 -0.030897398 -0.002527846 -0.08803744 -0.10662865
0.09603237 0.019671611 0.16516829 0.07286316 -0.048550647 0.09168751 0.048274357 0.09235518
0.062111035 0.030715816 -0.078885034 -0.049697172 0.11816076 0.15621668 -0.1339932 -0.07014511
0.04713986 0.12863424 0.15185732 0.032156605 -0.0890377 -0.11316231 -0.04424485 0.104453295
-0.057522155 0.15477389 0.118439324 0.06363994 0.10507103 0.09551014 0.068149395 0.13075995
0.06784615 0.047367282 0.064148344 -0.02805806 0.07354712 0.04866477 -0.09454308 -0.08688332
0.0019787455 -0.06903728 0.07251622 0.016094329 -0.10251069 -0.07096822 -0.08171025 -0.04826721
0.13225003 -0.123077385 0.052742038 -0.002654479 -0.005613688 0.1306112 0.15827139 0.055398315
0.020062927 -0.06153075 0.0758712 0.13148428 -0.04654112 -0.12355933 0.040910542 -0.04566831
-0.10592106 -0.05861458 0.05130716 0.034086093 -0.10576418 -0.029110646 0.06596439 0.083788864
-0.1057594 0.06016311 0.09110607 -0.0018939268 -0.08028023 -0.037712064 -0.06963325 -0.13293652
-0.0041812933 -0.050114084 0.07462371 -0.06280865 0.063066 -0.12851852 -0.047566574 -0.10205519
0.106010266 -0.091182046 -0.14180104 -0.026359702 -0.009695486 -0.029439934 -0.14316434 0.065566875
0.10495707 -0.07904254 0.13613665 -0.07982466 -0.016463863 0.12326596 -0.011009264 0.034212105
0.06775729 0.054083485 -0.034215964 -0.060653355 -0.0071895625 0.10135717 0.09412576 -0.045762792
0.02931504 -0.0294074 -0.036342584 0.019325398 -0.112160385 0.06708874 -0.108646795 -0.10321395
0.009673417 0.17712131 0.019163659 -0.12286991 -0.032936722 -0.021753008 0.09584601 0.05696169
-0.1422404 -0.03658451 0.15051185 0.12610105 -0.14937863 -0.11527068 0.12393108 0.103086956
0.044066735 -0.15757525 0.04055005 -0.091752715 -0.023539077 0.022095082 0.0341754 -0.001419625
-0.010368154 0.0364987 0.16319358 0.11214113 0.11745103 -0.0023003076 -0.10067171 0.024953078
-0.1292868 -0.16205549 -0.10218669 0.08733313 0.037489533 -0.07515395 0.10481237 -0.024520563
0.12624633 -0.026278123 0.053631205 0.017078642 -0.07831053 0.011709747 0.038058028 0.038807817
0.03256595 0.116117485 0.064994335 0.0056311595 0.009582713 -0.1321239 -0.085220516 -0.12077111
-0.06536573 0.036165252 -0.16549602 -0.098834686 0.015759004 -0.12657201 0.14687641 0.0016789619
00000000: 1060 e9bd ffc4 55bd a0d6 293c 4c23 863d
00000010: 8a1c fdbc 38aa 25bb f94c b4bd 1f60 dabd
00000020: 9fac c43d 5c26 a13c e021 293e 4839 953d
00000030: 0bdd 46bd a9c6 bb3d 55bb 453d b624 bd3d
00000040: 2468 7e3d bc9f fb3c 7a8e a1bd 438f 4bbd
00000050: 45fe f13d 44f7 1f3e 8335 09be 3da8 8fbd
00000060: ba15 413d b2b8 033e 7c80 1b3e a5b6 033d
00000070: 6659 b6bd a4c1 e7bd 163a 35bd 9ceb d53d
00000080: 5a9c 6bbd 0c7d 1e3e 5190 f23d a855 823d
00000090: 7b2f d73d d29a c33d e991 8b3d f0e5 053e
000000a0: ecf2 8a3d 3204 423d 3560 833d 04da e5bc
000000b0: df9f 963d b654 473d cd9f c1bd e2ef b1bd
000000c0: d7ad 013b 6b63 8dbd 6283 943d 41d8 833c
000000d0: 20f1 d1bd c957 91bd b457 a7bd d7b3 45bd
000000e0: 8d6c 073e ff0f fcbd 0908 583d c4f6 2dbb
000000f0: 07f3 b7bb f1be 053e e511 223e 58e9 623d
00000100: 025b a43c ab07 7cbd 5c62 9b3d d1a3 063e
00000110: e7a1 3ebd ad0c fdbd d091 273d b20e 3bbd
00000120: 24ed d8bd d815 70bd 7527 523d dc9d 0b3d
00000130: e49a d8bd 7379 eebc 5718 873d 7f99 ab3d
00000140: 6298 d8bd 986d 763d d295 ba3d a33d f8ba
00000150: f669 a4bd f777 1abd e19b 8ebd 8320 08be
00000160: 3b03 89bb 6d44 4dbd 51d4 983d d2a1 80bd
00000170: bf28 813d 5c9a 03be 2bd5 42bd 5002 d1bd
00000180: e91b d93d a7bd babd 4b34 11be 4df0 d7bc
00000190: d1d9 1ebc 042c f1bc ac99 12be ed47 863d
000001a0: bbf3 d63d 0ee1 a1bd 6867 0b3e 1d7b a3bd
000001b0: 39df 86bc dd72 fc3d 3360 34bc fe21 0c3d
000001c0: 56c4 8a3d a586 5d3d 0a26 0cbd a76f 78bd
000001d0: 6c96 ebbb 5994 cf3d 02c5 c03d c471 3bbd
000001e0: 1826 f03c cae7 f0bc f6db 14bd 4c50 9e3c
000001f0: 58b4 e5bd d265 893d 3682 debd d661 d3bd
00000200: 407d 1e3c 4a5f 353e 1bfd 9c3c 38a3 fbbd
00000210: a8e8 06bd 5d33 b2bc ea4a c43d a950 693d
00000220: 78a7 11be a4d9 15bd c71f 1a3e a220 013e
00000230: b6f6 18be 0913 ecbd 94cf fd3d 411f d33d
00000240: 527f 343d 685b 21be cf17 263d d9e8 bbbd
00000250: 06d5 c0bc bf00 b53c 81fb 0b3d b612 baba
00000260: 31df 29bc a97f 153d 381c 273e 40aa e53d
00000270: 2a8a f03d c2c0 16bb f82c cebd 666a cc3c
00000280: c263 04be e0f1 25be 4147 d1bd b6db b23d
00000290: a08e 193d 50ea 99bd dea7 d63d 59df c8bc
000002a0: b846 013e 3845 d7bc 65ac 5b3d 82e8 8b3c
000002b0: 4561 a0bd 3dda 3f3c bce2 1b3d f2f4 1e3d
000002c0: e063 053d 01cf ed3d c01b 853d 9785 b83b
000002d0: d000 1d3c 7d4b 07be 1888 aebd d856 f7bd
000002e0: 78de 85bd 0422 143d ca77 29be d769 cabd
000002f0: 0719 813c 189c 01be c566 163e 9d10 dc3a

GNN.gru2.weight f4 [10, 64, 64]
-0.07680964 0.083165765 0.08014051 0.11830622 -0.03905786 0.027014062 -0.050542146 0.023400573
-0.11443199 -0.035749093 0.08127509 -0.013577943 0.08835014 0.025289023 -0.036349513 -0.010441401
-0.0720036 0.103853725 0.036849163 0.112191364 -0.086236484 0.07980313 0.10184626 0.010668449
-0.06451211 -0.0061454 0.106316864 0.10100598 0.04769819 0.12186776 0.08941105 0.036651764
-0.12174748 -0.06982735 -0.035343923 0.09427587 -0.018213175 0.07866758 0.008624795 -0.0382892
0.07954021 -0.06640136 -0.106693365 0.11247332 0.03722951 0.11378827 -0.06127577 0.101763666
0.0100513995 0.0139438575 -0.048010506 0.010565105 -0.013928537 0.0351385 0.10384726 -0.1164175
0.07758685 -0.098679855 0.093723126 -0.03627868 -0.03236168 0.024782702 -0.10344087 -0.071395695
0.032059334 0.13456687 -0.037149157 0.0851057 0.09945246 -0.020362858 -0.022922168 -0.10608921
0.07920055 -0.00742821 -0.024061264 -0.028304966 -0.004040526 -0.09198384 0.05644265 0.084969915
0.08689312 -0.11349753 -0.009389647 0.0013820976 -0.08833561 -0.13380596 0.03152807 0.06006196
-0.037940037 -7.50615e-05 -0.0959321 0.029454596 -0.08505758 -0.09292046 -0.0817225 0.049063347
-0.099275045 0.049133904 -0.08016814 -0.035807442 0.09383435 -0.015277495 -0.0005883213 -0.07600716
-0.07980781 -0.07217852 -0.07730869 -0.018548645 0.048404943 -0.06787412 -0.027998919 -0.10541825
-0.0081471875 0.048089318 0.021120783 0.07319366 -0.10562268 -0.05635184 -0.05116786 -0.09213927
-0.070692725 0.119562864 -0.09645676 -0.03414715 -0.05400799 -0.04433523 -0.1230071 0.067112304
0.04988967 -0.11189714 0.0073903203 -0.006231576 0.07700038 0.08318861 0.06429592 0.08491708
0.056738526 0.027170613 -0.07687424 0.016948432 -0.10476671 0.01907155 0.037488803 -0.0424487
-0.012252688 -0.05758281 0.04631357 -0.10489768 -0.077786565 0.10709797 -0.096035 0.106722176
-0.026831597 0.02949661 0.053984344 -0.084359795 -0.031110734 0.09075473 -0.038808852 -0.05507639
0.113266364 -0.023085028 0.014680669 0.022355929 -0.018379152 0.06812537 -0.07296093 0.1015456
-0.06400597 0.073060915 -0.0669477 -0.09514885 -0.12120348 -0.028214782 0.04934664 0.05991815
0.08211188 0.12274073 0.04192373 -0.08820395 0.119599715 0.04660733 0.11642496 -0.083275735
-0.0040468574 0.04499662 -0.018948957 -0.07492834 -0.05851233 -0.030036226 -0.10601959 0.10400018
0.05181265 -0.07433477 0.07046458 -0.039350063 -0.10225965 0.020857424 -0.11365351 -0.059157178
-0.11515176 -0.0020444393 -0.044092104 -0.11495285 0.12226568 -0.114037275 0.09048143 0.027099758
0.08896099 0.09348728 0.047492057 -0.06720902 -0.0844125 0.1046641 0.073100284 0.05578634
0.120967224 -0.010779291 -0.115802005 0.10439445 -0.10433698 0.061817214 0.070583835 0.10533525
0.118226364 -0.115945205 0.008542746 0.04398726 0.0434739 0.006990984 -0.05539672 -0.0690327
0.059004605 -0.03101319 -0.045834392 -0.021999285 0.10606241 -0.07070443 -0.006907657 0.081645146
0.045127183 0.089327395 0.10341762 0.0933274 0.0048006624 0.09530935 -0.025719136 0.018743977
0.03069757 -0.088950455 -0.09252977 -0.034782678 -0.045762256 -0.022533566 -0.09036182 -0.10081746
00000000: 5f4e 9dbd d052 aa3d b520 a43d 884a f23d
00000010: 22fb 1fbd 984c dd3c 4805 4fbd 8fb2 bf3c
00000020: 525b eabd a46d 12bd 8e73 a63d 0576 5ebc
00000030: ebf0 b43d ed2a cf3c 3ae3 14bd 6912 2bbc
00000040: a076 93bd 43b1 d43d 26ef 163d 96c4 e53d
00000050: c19c b0bd d36f a33d c694 d03d b8ca 2e3c
00000060: ed1e 84bd 5a5f c9bb a8bc d93d 39dc ce3d
00000070: 2d5f 433d ce95 f93d 241d b73d 2920 163d
00000080: be56 f9bd a401 8fbd cac4 10bd b513 c13d
00000090: cc33 95bc 781c a13d 034f 0d3c 23d5 1cbd
000000a0: fae5 a23d 70fd 87bd 0d82 dabd 6958 e63d
000000b0: f87d 183d d309 e93d 4dfc 7abd 7869 d03d
000000c0: a0ae 243c c774 643c aaa6 44bd 4319 2d3c
000000d0: 8534 64bc 63ed 0f3d dfad d43d 4c6c eebd
000000e0: dbe5 9e3d aa18 cabd e9f1 bf3d f498 14bd
000000f0: ae8d 04bd 1805 cb3c cfd8 d3bd e837 92bd
00000100: a650 033d e6cb 093e b729 18bd e64b ae3d
00000110: bbad cb3d 02d0 a6bc 45c7 bbbc 4d45 d9bd
00000120: e633 a23d 5868 f3bb 211c c5bc d1df e7bc
00000130: 6466 84bb 0662 bcbd 6830 673d b504 ae3d
00000140: 05f5 b13d 6571 e8bd 09d7 19bc 8027 b53a
00000150: 4de9 b4bd 6e04 09be 9423 013d 8803 763d
00000160: 0367 1bbd 566a 9db8 0d78 c4bd c44a f13c
00000170: ab32 aebd 154d bebd 205e a7bd a6f6 483d
00000180: b750 cbbd a240 493d 322f a4bd d3aa 12bd
00000190: 392c c03d 754e 7abc 9339 1aba a4a9 9bbd
000001a0: 4772 a3bd 55d2 93bd 0554 9ebd 54f3 97bc
000001b0: 4344 463d 9601 8bbd fd5d e5bc 86e5 d7bd
000001c0: c87b 05bc 4ef9 443d 7e05 ad3c 8fe6 953d
000001d0: b450 d8bd 30d1 66bd 6495 51bd 83b3 bcbd
000001e0: 59c7 90bd 60dd f43d 1f8b c5bd e2dd 0bbd
000001f0: 7b37 5dbd dc98 35bd 25eb fbbd 2d72 893d
00000200: 1c59 4c3d 542a e5bd 802a f23b 4032 ccbb
00000210: 60b2 9d3d ca5e aa3d 94ad 833d 02e9 ad3d
00000220: a866 683d e894 de3c 3e70 9dbd 70d7 8a3c
00000230: ee8f d6bd f03b 9c3c dc8d 193d b0de 2dbd
00000240: 80bf 48bc f4db 6bbd 4cb3 3d3d 98d4 d6bd
00000250: 904e 9fbd 2e56 db3d 00ae c4bd 2891 da3d
00000260: f0cd dbbc e0a2 f13c b01e 5d3d d4c4 acbd
00000270: f0db febc 9edd b93d 08f6 1ebd c897 61bd
00000280: 32f8 e73d d01c bdbc 3087 703c c823 b73c
00000290: e08f 96bc 5085 8b3d 8a6c 95bd 24f7 cf3d
000002a0: 9015 83bd f6a0 953d e01b 89bd 66dd c2bd
000002b0: 8839 f8bd b022 e7bc b41f 4a3d bc6c 753d
000002c0: 462a a83d 7e5f fb3d 38b8 2b3d 46a4 b4bd
000002d0: b2f0 f43d 54e7 3e3d 3670 ee3d 788c aabd
000002e0: 809b 84bb 604e 383d d83a 9bbc 0874 99bd
000002f0: a0aa 6fbd 880e f6bc cc20 d9bd 0cfe d43d
00000300: 8039 543d d43c 98bd bc4f 903d 882d 21bd
00000310: 826d d1bd 30dd aa3c 2cc3 e8bd cc4e 72bd
00000320: b0d4 ebbd 00fc 05bb ec99 34bd 666c ebbd
00000330: 6e66 fa3d 608c e9bd 544e b93d 5000 de3c
00000340: 2e31 b63d 4276 bf3d 0887 423d e2a4 89bd
00000350: 76e0 acbd 225a d63d 9ab5 953d 3880 643d
00000360: aabd f73d a09b 30bc 9a29 edbd c2cc d53d
00000370: a0ae d5bd 0c34 7d3d 428e 903d 02ba d73d
00000380: aa20 f23d ae74 edbd e0f6 0b3c fc2b 343d
00000390: b011 323d a014 e53b ace7 62bd 0461 8dbd
000003a0: d0ae 713d 600f febc d8bc 3bbd d837 b4bc
000003b0: 4037 d93d 7ccd 90bd a059 e2bb 9235 a73d
000003c0: 48d7 383d 48f1 b63d 9ecc d33d 7022 bf3d
000003d0: e04e 9d3b 8c31 c33d f0b0 d2bc f88c 993c
000003e0: 7879 fb3c a82b b6bd 4080 bdbd 4878 0ebd
000003f0: 3471 3bbd 5098 b8bc 9e0f b9bd 6279 cebd

GNN.gru2.rnn.weight_ih f4 [192, 64]
0.096991785 0.076367065 -0.061067805 0.07697017 0.011049251 0.10837285 0.059860907 -0.07464889
0.08787666 -0.014650075 0.081585616 0.015348087 0.06394622 0.011332886 0.07782682 -0.044183027
0.059323266 -0.076045915 -0.012147048 0.030885205 -0.018729787 -0.11389067 -0.07238542 0.055460893
0.04333763 0.03940975 0.15642205 0.0889174 -0.13750179 0.04242082 -0.021552276 -0.10118176
0.09259327 -0.07151911 -0.10537965 0.020087538 -0.09400619 -0.005712391 0.0734508 0.15926223
0.052754506 -0.06175451 -0.05773106 0.12500562 0.05341873 0.082237825 -0.09070372 -0.06654104
0.008412024 0.08209941 -0.04392948 0.107743345 0.0056478875 0.10724271 -0.045081243 -0.096431635
-0.037319742 0.09012794 -0.10386007 0.114968404 0.07673201 0.06111306 0.03359176 -0.01236592
0.07637103 0.07402831 -0.005343469 -0.054650977 0.06160915 0.1116474 0.07434969 -0.047958624
-0.040235817 -0.119540505 0.124759 0.12534598 -0.10616055 0.059998535 0.06319106 0.059751917
-0.13100284 -0.04862816 -0.040760342 0.15406968 -0.102835976 0.04994641 0.1484749 0.071456626
0.07538189 -0.15108976 0.12266835 -0.110873014 -0.10642461 -0.110345975 -0.045627426 -0.03909849
0.0012021965 -0.043887157 0.052902333 -0.09371978 0.044328302 -0.11026449 -0.040499434 0.07863584
0.073398374 -0.0042223996 -0.08186396 -0.06670198 -0.12340307 -0.12212817 -0.09258308 0.13459192
-0.02581527 -0.09942772 0.09853495 -0.01262771 0.12026872 0.03237131 0.087307826 -0.059523776
-0.067418 0.0067145345 0.09779834 0.0739355 0.06804282 -0.03310167 0.07715925 -0.009271037
0.12410479 -0.11477642 0.015687836 -0.080731995 0.010897014 -0.10044175 -0.13050085 -0.0491392
-0.07797366 -0.0066694254 -0.08081376 0.06860848 -0.08011706 0.11876343 0.042843096 0.09708031
0.11788712 -0.04948169 0.06442651 -0.04190811 0.02939625 -0.117771424 -0.05829498 -0.02043482
-0.022496393 0.106789105 -0.0030827532 -0.10008563 -0.011418457 0.027963659 0.09418147 -0.06497255
0.056422565 -0.05678989 -0.08053762 -0.1356988 0.057857778 -0.052978966 0.099863745 -0.041546695
0.010402006 0.10847035 0.023003781 -0.100659825 0.0046984805 -0.09359807 0.12236495 0.010788346
-0.033541415 -0.10441828 0.016985817 0.031133775 -0.03414858 -0.03851947 -0.07458265 0.00035634608
0.010187489 -0.116015755 -0.08305118 -0.09038731 0.10731767 -0.097036555 -0.082046576 0.012444384
0.080379486 -0.06660522 0.15412225 -0.08509487 -0.08890597 0.1518535 -0.15454596 0.02440131
-0.07326461 0.10282224 -0.14460956 0.02848658 0.041112293 0.14305723 0.0020828226 0.09409221
0.060955852 0.11962552 -0.00554008 -0.065591395 0.15805192 -0.041017264 -0.022075985 0.12621148
0.07089075 0.04866421 0.008886278 -0.061180763 0.049322557 0.16110839 -0.036719512 -0.08401673
0.016607 0.05260547 0.1388771 -0.0541931 0.14738554 0.09197427 -0.040354367 -0.10021102
0.040149223 0.026037818 -0.022108367 0.047158796 0.07309039 0.01684008 -0.02089902 -0.070923135
-0.014990392 0.03917162 0.016092844 -0.07058692 -0.028073847 0.11645569 0.102853216 0.0912779
-0.085528575 -0.03752696 -0.051949445 0.081774555 0.00417932 -0.06534101 0.1088838 0.066339925
00000000: a1a3 c63d 5666 9c3d 3c22 7abd 89a2 9d3d
00000010: eb07 353c 96f2 dd3d b630 753d 84e1 98bd
00000020: aef8 b33d de06 70bc 5c16 a73d 8b76 7b3c
00000030: 3cf6 823d 92ad 393c ab63 9f3d 43f9 34bd
00000040: f4fc 723d f6bd 9bbd 6904 47bc f802 fd3c
00000050: 366f 99bc 833f e9bd cf3e 94bd f62a 633d
00000060: cc82 313d 1e6c 213d 1a2d 203e 531a b63d
00000070: 45cd 0cbe 74c1 2d3d 668e b0bc 6238 cfbd
00000080: 8aa1 bd3d 9c78 92bd 49d1 d7bd 9f8e a43c
00000090: 5186 c0bd 022f bbbb 5f6d 963d a315 233e
000000a0: 1c15 583d 4cf2 7cbd 6777 6cbd 7901 003e
000000b0: 99cd 5a3d 4e6c a83d dfc2 b9bd ab46 88bd
000000c0: 96d2 093c bc23 a83d 66ef 33bd 8ba8 dc3d
000000d0: ea11 b93b 11a2 db3d 1ca7 38bd f37d c5bd
000000e0: 96dc 18bd ff94 b83d 97b4 d4bd 8e74 eb3d
000000f0: ac25 9d3d b051 7a3d 8397 093d 6d9a 4abc
00000100: 6a68 9c3d 289c 973d 4418 afbb b4d9 5fbd
00000110: e059 7c3d 64a7 e43d a644 983d 4370 44bd
00000120: 50ce 24bd a7d1 f4bd a681 ff3d b25a 003e
00000130: b46a d9bd 06c1 753d 516a 813d 6dbe 743d
00000140: 9c25 06be 522e 47bd 51f4 26bd 71c4 1d3e
00000150: ab9b d2bd 9b94 4c3d ce09 183e da57 923d
00000160: d261 9a3d 46b7 1abe 8b39 fb3d 6411 e3bd
00000170: 25f5 d9bd 12fd e1bd d3e3 3abd bd25 20bd
00000180: 0593 9d3a 05c3 33bd 1eb0 583d 28f0 bfbd
00000190: 9891 353d 59d2 e1bd bce2 25bd d40b a13d
000001a0: e351 963d 0e5c 8abb 4ba8 a7bd 0c9b 88bd
000001b0: c0ba fcbd 561e fabd 339c bdbd 77d2 093e
000001c0: 8c7a d3bc c3a0 cbbd b1cc c93d 74e4 4ebc
000001d0: 724f f63d c797 043d 72ce b23d 34cf 73bd
000001e0: 7312 8abd 9905 dc3b 7f4a c83d 7f6b 973d
000001f0: 095a 8b3d 9e95 07bd ab05 9e3d 8ce5 17bc
00000200: a72a fe3d e60f ebbd c783 803c d156 a5bd
00000210: 6489 323c 67b4 cdbd 04a2 05be 3046 49bd
00000220: a7b0 9fbd 328b dabb af81 a5bd 9a82 8c3d
00000230: 6a14 a4bd 3e3a f33d 3e7c 2f3d 0bd2 c63d
00000240: cd6e f13d 50ad 4abd 0cf2 833d d7a7 2bbd
00000250: 68d0 f03c 2532 f1bd b8c6 6ebd ec66 a7bc
00000260: 5b4a b8bc 3fb4 da3d 0408 4abb b2f9 ccbd
00000270: 7b14 3bbc 0b14 e53c 37e2 c03d 5410 85bd
00000280: 591b 673d 849c 68bd e8f0 a4bd a0f4 0abe
00000290: 47fc 6c3d 7900 59bd 5d85 cc3d de2c 2abd
000002a0: 2d6d 2a3c b425 de3d 6d72 bc3c bd26 cebd
000002b0: b6f5 993b 58b0 bfbd 7a9a fa3d 9ac1 303c
000002c0: b962 09bd 40d9 d5bd d725 8b3c 420c ff3c
000002d0: 62df 0bbd 97c6 1dbd cabe 98bd f6d3 ba39
000002e0: 6de9 263c ab99 edbd bd16 aabd fb1c b9bd
000002f0: 5ec9 db3d 1abb c6bd 0908 a8bd 88e3 4b3c
00000300: 009e a43d 5168 88bd 39d2 1d3e 3846 aebd
00000310: 5514 b6bd 7c7f 1b3e 4c41 1ebe 42e5 c73c
00000320: c10b 96bd 7794 d23d 8714 14be b05c e93c
00000330: 5d65 283d 987d 123e f77f 083b 6bb3 c03d
00000340: d8ac 793d 3afe f43d 8f89 b5bb c854 86bd
00000350: 5dd8 213e b801 28bd b2d8 b4bc 953d 013e
00000360: 2b2f 913d 1f54 473d c097 113c ae98 7abd
00000370: 7306 4a3d 99f9 243e 3367 16bd f710 acbd
00000380: 670b 883c d578 573d cc35 0e3e 96f9 5dbd
00000390: 3cec 163e 025d bc3d 9f4a 25bd 6f3b cdbd
000003a0: 8373 243d 434d d53c 9b1c b5bc 9529 413d
000003b0: 6ab0 953d 35f4 893c 6c34 abbc 2640 91bd
000003c0: 439a 75bc 6c72 203d 24d5 833c e08f 90bd
000003d0: 20fb e5bc 5280 ee3d b5a4 d23d e8ef ba3d
000003e0: 9b29 afbd dfb5 19bd f1c8 54bd 6b79 a73d
000003f0: adf2 883b 82d1 85bd 78fe de3d 3add 873d

GNN.gru2.rnn.weight_hh f4 [192, 64]
-0.15226322 0.039271425 0.0018272233 -0.056821067 -0.07824014 0.10301962 0.0077214884 -0.112304084
-0.03567902 -0.008050992 0.07117455 0.066877045 -0.0046080514 0.124188125 -0.15534163 -0.023815237
0.035148326 0.053480454 0.0059155654 0.11978871 0.14387919 0.04440255 -0.032614835 -0.010056355
0.117517956 -0.066667534 0.0058511063 0.09033705 -0.028710544 0.0106077185 -0.09655867 0.00042540865
0.08739056 0.059531447 -0.058064997 -0.043391354 -0.09420607 -0.063198164 0.009154539 -0.12017797
0.1640749 0.13168967 0.1032537 -0.16066751 0.017462147 -0.03859994 -0.099034086 -0.04989719
0.15877534 0.0223497 -0.05684571 0.08840714 0.029621158 0.107711785 0.007957857 -0.13722737
-0.055573147 0.06632151 0.042328574 0.053526398 -0.13243331 -0.14433827 -0.0009530745 0.10222684
-0.07844995 -0.028226385 0.079525344 0.0701728 -0.0533133 -0.10984164 -0.14173019 -0.16387859
-0.13548574 0.07690875 -0.050365765 0.036806703 -0.109786466 0.19173592 -0.12264603 0.07500468
0.006741448 -0.04040684 0.08025852 0.1700601 0.068775006 -0.04275528 0.030543726 -0.12731096
-0.06729147 0.1534043 -0.057485644 0.033562824 -0.08802637 -0.15707374 -0.116382055 0.165237
-0.028638188 -0.17207529 -0.030707963 0.08578373 -0.10937147 -0.030096466 -0.09240027 -0.057334892
0.064667836 0.07870171 -0.020560285 -0.024681587 0.020607462 -0.02152159 -0.14915952 -0.12193908
-0.04845624 0.0015132956 -0.039469294 0.17778824 -0.02613316 0.039481215 -0.10100848 -0.009878678
-0.06815305 -0.11457507 0.145356 0.1168328 -0.059697952 -0.15234679 0.061111517 0.112971164
-0.10512791 0.0668668 -0.062238682 -0.09411978 -0.13206765 -0.010620527 -0.10563865 -0.03463877
-0.06208235 -0.02364753 0.048504785 0.080288865 0.009790306 -0.09416078 -0.11504464 0.08977034
-0.104061395 -0.049823847 0.08481926 0.046886135 0.07738482 0.0019896964 0.13390149 -0.030997768
0.020204822 -0.018168408 0.057823043 -0.013850472 -0.053886782 -0.09440378 -0.12474768 -0.055489846
0.015631933 -0.09557173 -0.07952808 0.10906015 0.058237318 0.02309041 0.03175092 0.07622364
0.0886532 0.007869398 -0.05820629 -0.025149098 -0.06965478 -0.12514547 -0.0134174265 -0.113991894
0.12579066 0.006301046 -0.014349713 -0.07513153 0.11652299 -0.00018373283 -0.021242976 -0.07780485
0.035869606 0.04913119 0.08633214 -0.00883479 0.0059756045 -0.04409533 -0.012328586 0.095062554
-0.091336235 -0.09149812 -0.04464273 0.089519 0.05173681 -0.0634509 0.11966554 0.03912364
0.07664661 -0.043913204 -0.07287836 0.025763858 -0.092389554 0.0155794835 -0.11591089 0.12798478
0.04911601 -0.039837193 -0.0066323564 -0.10980116 0.018965403 0.0259618 0.06043301 -0.029395873
-0.045602806 -0.09403869 0.0514472 0.12282078 -0.039231252 0.026410216 0.10434693 0.095185734
0.022512991 0.09651759 -0.11566664 0.0903945 -0.06660434 -0.013523485 -0.05360024 0.010349983
-0.021086805 0.0544675 -0.123403974 0.09589562 -0.12623933 -0.04662184 0.1143204 -0.08802981
-0.06780319 0.068344034 -0.010625358 -0.08802345 0.05148624 -0.14273547 -0.06487542 -0.03012288
-0.05808836 0.03538142 0.018818697 0.06865902 0.09613992 0.008332373 -0.10210953 0.04319255
00000000: e4ea 1bbe 13db 203d 717f ef3a 35bd 68bd
00000010: 5e3c a0bd f3fb d23d 8a04 fd3b afff e5bd
00000020: 2a24 12bd 4fe8 03bc f6c3 913d d5f6 883d
00000030: 23ff 96bb 5856 fe3d e011 1fbe 2c18 c3bc
00000040: b1f7 0f3d 520e 5b3d 5cd7 c13b c853 f53d
00000050: 1155 133e 73df 353d 2297 05bd 69c3 24bc
00000060: 41ad f03d fd88 88bd a3ba bf3b a202 b93d
00000070: 6032 ebbc ffcb 2d3c 8dc0 c5bd 6209 df39
00000080: d2f9 b23d 3fd7 733d 90d5 6dbd 22bb 31bd
00000090: 1def c0bd 0a6e 81bd ebfc 153c de1f f6bd
000000a0: 4003 283e a8d9 063e ad76 d33d 0686 24be
000000b0: c70c 8f3c f81a 1ebd 62d2 cabd ff60 4cbd
000000c0: 0196 223e b816 b73c 0cd7 68bd cd0e b53d
000000d0: 12a8 f23c ff97 dc3d ac61 023c 5585 0cbe
000000e0: aba0 63bd 92d3 873d ba60 2d3d 7f3e 5b3d
000000f0: 999c 07be 69cd 13be bfd7 79ba 4e5c d13d
00000100: 5eaa a0bd 053b e7bc 2fde a23d c2b6 8f3d
00000110: 0c5f 5abd a7f4 e0bd b821 11be cacf 27be
00000120: c6bc 0abe 5682 9d3d 554c 4ebd a0c2 163d
00000130: bad7 e0bd 6c56 443e d72d fbbd 0e9c 993d
00000140: 5de7 dc3b a581 25bd 945e a43d 3c24 2e3e
00000150: e9d9 8c3d 2920 2fbd d636 fa3c ce5d 02be
00000160: 1cd0 89bd 0416 1d3e 1176 6bbd 2c79 093d
00000170: 2b47 b4bd f0d7 20be b759 eebd e333 293e
00000180: a29a eabc 8134 30be 448f fbbc 61af af3d
00000190: 26fe dfbd dd8c f6bc 5a3c bdbd fed7 6abd
000001a0: 9270 843d 5d2e a13d 0b6e a8bc 0a31 cabc
000001b0: fbd0 a83c 0c4e b0bc 46bd 18be 32bb f9bd
000001c0: 0d7a 46bd c659 c63a 8eaa 21bd 1f0e 363e
000001d0: 3515 d6bc 0eb7 213d 89dd cebd 2eda 21bc
000001e0: d493 8bbd 56a6 eabd 34d8 143e 0946 ef3d
000001f0: d785 74bd cc00 1cbe 1250 7a3d 6d5d e73d
00000200: 4d4d d7bd 76f1 883d fded 7ebd dfc1 c0bd
00000210: be3c 07be b801 2ebc 1459 d8bd 62e1 0dbd
00000220: 104a 7ebd 77b8 c1bc f4ac 463d 7d6e a43d
00000230: 8567 203c 5ed7 c0bd 869c ebbd 83d9 b73d
00000240: 241e d5bd 1714 4cbd b8b5 ad3d ad0b 403d
00000250: ef7b 9e3d 9165 023b 791d 093e 08ef fdbc
00000260: 9584 a53c ead5 94bc dbd7 6c3d 17ed 62bc
00000270: 63b8 5cbd c556 c1bd b67b ffbd 5249 63bd
00000280: 8a0e 803c 1cbb c3bd 9edf a2bd ee5a df3d
00000290: 418a 6e3d 1928 bd3c 410d 023d 241b 9c3d
000002a0: cf8f b53d a6ee 003c b869 6ebd 7b05 cebc
000002b0: 2aa7 8ebd 2226 00be c4d4 5bbc 9574 e9bd
000002c0: 44cf 003e 0179 ce3b 0f1b 6bbc 8fde 99bd
000002d0: 9ba3 ee3d 68a8 40b9 c005 aebc 2658 9fbd
000002e0: 02ec 123d c93d 493d e8ce b03d ccbf 10bc
000002f0: 01cf c33b 4e9d 34bd d6fd 49bc 28b0 c23d
00000300: 7e0e bbbd 5e63 bbbd 4cdb 36bd bd55 b73d
00000310: fae9 533d 8cf2 81bd 3513 f53d 1c40 203d
00000320: e6f8 9c3d 55de 33bd 4041 95bd ba0e d33c
00000330: bc36 bdbd 1741 7f3c b062 edbd 710e 033e
00000340: df2d 493d 532c 23bd 3d54 d9bb 6edf e0bd
00000350: 555d 9b3c d7ad d43c 9b88 773d 9dcf f0bc
00000360: 02ca 3abd 5b97 c0bd 4dba 523d 7689 fb3d
00000370: f3b0 20bd 3d5a d83c d8b3 d53d bdf0 c23d
00000380: 2a6d b83c 04ab c53d a2e2 ecbd c020 b93d
00000390: db67 88bd 9b91 5dbc ed8b 5bbd fa92 293c
000003a0: 3cbe acbc 5019 5f3d 39bb fcbd ec64 c43d
000003b0: e244 01be 8bf6 3ebd d020 ea3d f948 b4bd
000003c0: 66dc 8abd f5f7 8b3d fb15 2ebc a345 b4bd
000003d0: 3ce3 523d 3f29 12be 67dd 84bd 42c4 f6bc
000003e0: 0fee 6dbd 1cec 103d ab29 9a3c 1a9d 8c3d
000003f0: 02e5 c43d 8184 083c cd1e d1bd acea 303d
